model_history/model_lenet5_tmmsvhn_ver1.pt (torch, 180807 bytes, 10 tensors)

layer1.0.weight f4 [6, 1, 5, 5]
00000000: 7f37 89ba c902 9bbe dac9 43bf 0336 8fbf
00000010: 597f a0bf 1752 923e 1c3a a0bd f7fe 04bf
00000020: 868e 8fbf 059e 83bf 4f1f e03e d77a 393f
00000030: a966 103f ad88 f3bd 04cf b9be 1c94 fb3e
00000040: 28a0 803f 87e5 993f ec59 533f fc5d 603e
00000050: fcc2 24bf a7ed 3c3e 8672 533f baec 473f
00000060: 8102 b33e d651 3a3e c5b3 533f 3f02 093c
00000070: 49f5 cabe 9023 24bf a6fb e33e 39c3 583f
00000080: b40f 673e b98f 1bbf 7bf9 36bf 593c b63d
00000090: 7724 5d3f 7a4c 343e df72 2dbf dfed 08bf
000000a0: e2c4 36be b1c2 173f e207 693e a827 9fbe
000000b0: 28b5 8abe 5450 15be 223d 383f 3ef2 483e
000000c0: fa0c b8bd 4c8d 29be fb3a ef3c 621b 6d3d
000000d0: 26cb 07be 58c2 23be fc92 87be ade6 16bf
000000e0: ef9f 0ebf c269 dabe 72e1 eabe 8884 01be
000000f0: fcb7 d2be b01e e3be 43f1 afbe 6ef7 49be
00000100: 38d5 273e 86a6 4d3e 63f5 453e e425 4d3e
00000110: 8d54 9a3e ec4f 833e 1191 013f 7c6e 093f
00000120: dead 943e e95c b83e a81e ea3d 7fad 353f
00000130: fae1 223f de53 7f3f 6600 123f 7774 263f
00000140: 549e 533e fbce 183f e29e 9c3e 4fed a53e
00000150: a588 f43e 144a a83d b1c2 1b3e ae46 f7bd
00000160: bcc7 e9be 39d3 88be 161a 69be aec0 9ebe
00000170: 252a ffbe 5151 63bf 3296 f7be 81b3 2ebe
00000180: c046 5dbe 38d0 51bf 420f 5cbf f77f c7be
00000190: 51a7 d13f 61f8 4c3f 62d4 b2bd 197d 06bf
000001a0: 2d56 36be f73a 733f de8b c53e 6e64 18bf
000001b0: 9ca1 4abf f836 2a3e 31f6 2b3e a1a6 40bf
000001c0: 3775 acbf b8b6 33bf f6e1 a33e f738 f13c
000001d0: fe37 73bf fbaa 4ebf d7ad 083e 04a3 6c3f
000001e0: e3bc 35bf 2c2e 4bbf bc38 01be 5607 5c3f
000001f0: 17ac 923f aef5 3ebe 2bf1 013e 4d59 183e
00000200: c2b2 383e 4748 65be 04c1 7a3d 2815 05be
00000210: 0250 9dbd a3e2 c03d 4300 d83d cea9 00be
00000220: 61cb c63d 819b 533e 476b 6a3e 2977 2cbd
00000230: 2dcf afbd d0e8 c83d 2cd2 2f3e 3c27 1c3e
00000240: 2d4d 27bc 96ba 473e 96cb 8d3e af6d 1d3e
00000250: 13de 923e 81a1 88bd
-0.001046881 -0.30275562 -0.76479876 -1.1188358 -1.2538863 0.28578255 -0.078235835 -0.51951545
-1.121537 -1.0282599 0.43773887 0.72453064 0.56406647 -0.11891303 -0.36290753 0.49136436
1.0048876 1.2023171 0.82559085 0.21910852 -0.6436002 0.18450032 0.82596624 0.7809559
0.34962848 0.1819528 0.8269618 0.008362352 -0.39640263 -0.64116764 0.4452793 0.84672886
0.22564584 -0.6076618 -0.71474427 0.08898229 0.86383766 0.17607298 -0.67753404 -0.5348796
-0.17848542 0.5928145 0.22756913 -0.31084943 -0.27091336 -0.14581424 0.7196828 0.19623658
-0.0898685 -0.16557807 0.029202929 0.057887442 -0.13261089 -0.15992105 -0.26479328 -0.58945733
-0.5571279 -0.42658812 -0.45875126 -0.12648213 -0.41155994 -0.4435935 -0.34363756 -0.19723293
0.1638993 0.20083055 0.19331889 0.20033985 0.30142632 0.25646913 0.5061198 0.5368421
0.290389 0.36008385 0.114316285 0.7096786 0.6362606 0.99737346 0.5703186 0.6502146
0.20665866 0.5969083 0.30589968 0.32407615 0.47760502 0.08217254 0.15210988 -0.12074028
-0.45660198 -0.2672365 -0.22763857 -0.31006378 -0.4983684 -0.88795954 -0.48356777 -0.17060663
-0.2160902 -0.8195834 -0.8596078 -0.38964817 1.6379186 0.80066496 -0.08731915 -0.52534634
-0.17806311 0.9501185 0.38583273 -0.59528244 -0.79152846 0.16622531 0.16793133 -0.75254256
-1.3473271 -0.7020068 0.32008332 0.029446108 -0.9500731 -0.80729645 0.13347565 0.9243624
-0.70991343 -0.7936733 -0.12619299 0.85948694 1.1458768 -0.18648407 0.12689655 0.14877816
0.1803694 -0.22390853 0.06121923 -0.12996352 -0.07681276 0.094182275 0.10546925 -0.12564775
0.0970676 0.20664789 0.22892486 -0.042105827 -0.085844375 0.098100305 0.17170018 0.15249342
-0.010211271 0.1950477 0.27694386 0.15373872 0.28685054 -0.066714294

layer1.0.bias f4 [6]
00000000: fada 0a3f 1606 023f cbd3 48be 65c7 15be
00000010: b05f a1be cea0 13bf
0.5424038 0.50790536 -0.19612043 -0.14626844 -0.31518316 -0.57667243

layer2.0.weight f4 [16, 6, 5, 5]
00000000: 0160 c0bd e497 15bc 4d72 3d3e 498e b83d
00000010: fc47 66be 4c24 4abe 5d1a 90be 6b86 e03c
00000020: 2d65 2cbd 6449 39be ca6f b93d 0daf 10be
00000030: 7549 bcbe a14b 61be 7677 9abc ef5f 643d
00000040: 7935 063d 45fc 30be 7fdf c6be 845d 39be
00000050: 2a3a b7bd 587f 2c3d efbf 9dbd f1c9 89be
00000060: a8ce 38be 6ded b1be c7f7 043e 0b63 c23e
00000070: 0d97 ba3e 0daa 3c3e fe1a 4a3e 8ff9 c43e
00000080: ba8b 903e 175f 403e 9b66 de3d 9b12 b63e
00000090: 08d3 b63e 28cb 533d e701 c6bc 7090 ca3d
000000a0: 8f45 353e 850c bb3d 723f a0be 6faf e2bd
000000b0: 023d 8dbd 0633 17be 5050 55be 5f01 3cbf
000000c0: f164 63be 2a4f 493d 4e4c 85bd 1e33 78be
000000d0: f486 ec3c 261b 2c3e 7706 ea3e 17c0 503e
000000e0: c655 a43d e103 683e ba62 3d3e 1931 c63d
000000f0: 26fb 1cbd 0d1d 4f3e 0d0d 333e 7a6e 12bd
00000100: 20a6 80be 173f 17be b2ab 183e 8fa7 1b3d
00000110: 3fe6 88be cd80 0bbe fec0 68be 59ac 9abd
00000120: 8fea 8f3d be3f b1bc 7005 963e dc35 7abd
00000130: 26c2 9dbc 0190 0ebe 8033 8cbd cc70 ddbc
00000140: 4e97 7f3d ecb0 823d 5c23 8dbd 428a 40be
00000150: cd03 e53d 2402 a7bd 8ae2 5c3d 87d3 8c3d
00000160: 0989 463e 2485 073e 90a8 edbd 94f4 90bd
00000170: 09a1 a6be 95c5 98bd e047 82bd a809 093e
00000180: 9d5e 273e 46a4 84be c23a d4be 3947 b9be
00000190: f635 4ebd 2f79 83bd a026 1c3e 7488 183e
000001a0: 52fb 32be 2a0d 2bbc 9baf a23b 288d ab3e
000001b0: 2fca f53d b6a3 823d ab91 6fbd 568c d6bd
000001c0: 1f0b 423e 7bd4 383e 2ef6 723e 00d9 24be
000001d0: b87c 85be 962a 82bd 4fce 66be a706 8ebb
000001e0: 058f bdbe 4165 8dbe 3609 0abf 2a40 5cbf
000001f0: 969e 2cbf fa2a 87bd 7df2 72be cf0b 1fbe
00000200: d287 85be cf96 3ebe 4ebf 84bc 281f 8fbd
00000210: 03d7 d13c f70f 86bc 67cb 98bd b9a1 cb3b
00000220: 947f 4cbd c2f8 503e 80ba 3b3e c079 7d3d
00000230: 2369 313e cff0 ddbc 18cd 2d3e eb02 6c3e
00000240: 5927 04bd 2df1 d93e 4744 dbbd 611a 923c
00000250: a28e 05bd ce41 1bbe a751 d8bd 18b8 66be
00000260: d9a3 b4bd 214b 85bc b036 3e3b 2433 9bbd
00000270: 3515 32be dd3d 00bd 4e93 b73d f031 6bbd
00000280: 7774 a0bd 8f9f b03d 3fd3 143e a772 0d3c
00000290: 3de2 d7bd 08fe 183e 637f 6b3d e86a 54bd
000002a0: 94ce 83be bd95 c5bd 65dd 93be 9df6 acbe
000002b0: 96ff bcbe d103 b7be b382 ac3c 4542 883c
000002c0: 951d c13d 351a 353e 4f39 ef3b af45 0f3e
000002d0: 14aa 1b3d be1b 563e 50a8 213e 9ad4 dc3d
000002e0: 81ab 173e d97f 353e 54ee 063e e74f ab3d
000002f0: f537 393e f040 103e dccf 333e 4262 003d
00000300: f686 353e 85ee 0f3e 4fdb f23c 8691 b43c
00000310: 94e6 2e3c a882 9e3e b7a4 d03e e747 b83d
00000320: a5d5 073e 3c24 6e3c fd9e a53d 4dad a4bc
00000330: 6080 fbbd 0572 09bd 9e51 423e 4071 713e
00000340: 43b2 383e 05b8 d3bd 4b24 25bc 5e66 a63e
00000350: 263e 3c3e 2bdb 6a3d 6251 a4be 20c7 b43d
00000360: d8f7 a63e f8fd b13e 8c1a 6c3e 3988 1f3e
00000370: a207 b23d 34fb c63e dfc0 923e f8e1 443e
00000380: 82c4 333d 9df7 2dbe d708 2dbe 0c33 863c
00000390: 7303 f33d d595 813d 46bb 1bbc 6912 d63d
000003a0: 4ed6 e03d 9a56 ac3d 7c6a 16be 7744 ba3d
000003b0: a52e f93d 2fe8 443e ef0c 5f3e 54f2 0cbe
000003c0: 015e e9bd 6f59 1e3e 5937 193e 1818 1e3e
000003d0: 66eb 89be 197e 13be 050b 49bc 5190 51be
000003e0: 7a63 943d 6566 1abe cca8 1e3e 3362 70bd
000003f0: c365 01be 517b 47bd 09ca 4abc f32d ae3d
-0.09393311 -0.009130452 0.18500634 0.09011514 -0.22488397 -0.19740409 -0.28145114 0.027407845
-0.042088676 -0.18094403 0.09054525 -0.14129277 -0.36774793 -0.22001506 -0.018855792 0.055755552
0.03276584 -0.17283733 -0.3884239 -0.1810208 -0.08946641 0.042113632 -0.07702624 -0.26911882
-0.18047583 -0.34751454 0.12985145 0.3796619 0.36443368 0.18424244 0.19736859 0.38471648
0.28231603 0.18786274 0.10859414 0.3556107 0.3570788 0.051707417 -0.024170829 0.098908305
0.17702316 0.09133247 -0.31298405 -0.110686176 -0.06896402 -0.14765558 -0.20831418 -0.7343959
-0.22206475 0.049147762 -0.065086946 -0.2423825 0.028872944 0.16807231 0.45708057 0.20385776
0.080241725 0.2265773 0.18494692 0.096773334 -0.03832545 0.20225926 0.17485447 -0.03574989
-0.25126743 -0.1477016 0.14909247 0.038001593 -0.26738164 -0.13623352 -0.2272987 -0.07552404
0.070271604 -0.02163684 0.29301023 -0.06108652 -0.019257616 -0.1392212 -0.0684576 -0.027031325
0.062400155 0.063814014 -0.0689151 -0.18802741 0.111823656 -0.08154705 0.053926982 0.06876283
0.19388212 0.13234383 -0.11604416 -0.070778996 -0.32544735 -0.07459561 -0.06361365 0.1338259
0.16344686 -0.2590658 -0.4145108 -0.3618715 -0.05034443 -0.06419598 0.1524911 0.14895803
-0.17478684 -0.01044015 0.0049647815 0.3350613 0.12001454 0.06378882 -0.05848853 -0.10475986
0.18949555 0.18049805 0.23726723 -0.16098404 -0.26071715 -0.06355779 -0.22539638 -0.004334289
-0.37023178 -0.27616313 -0.53920305 -0.86035407 -0.6742948 -0.06599994 -0.23725314 -0.15531848
-0.26080185 -0.18612216 -0.016204502 -0.069883645 0.02561522 -0.016365035 -0.07460671 0.006214347
-0.049926355 0.20407394 0.18332863 0.061883688 0.17325263 -0.027092366 0.16972768 0.23047988
-0.032264087 0.42566815 -0.10706382 0.017834844 -0.03260673 -0.15161821 -0.10562449 -0.22531164
-0.08820314 -0.016271176 0.0029024296 -0.07578114 -0.17390902 -0.031308997 0.08963643 -0.05742067
-0.07834714 0.086241834 0.14533709 0.008633292 -0.105411984 0.14940655 0.057494532 -0.051859766
-0.25743544 -0.09647701 -0.28879848 -0.337819 -0.36913747 -0.357451 0.021058416 0.016633162
0.094294704 0.17685778 0.007300533 0.13991426 0.038003996 0.2090902 0.15786862 0.10782738
0.14811517 0.17724551 0.13176852 0.083648495 0.18087752 0.14087272 0.17559761 0.031343706
0.17727265 0.14055832 0.02964559 0.022042047 0.010675091 0.30959058 0.40750667 0.08998089
0.13265093 0.014535006 0.08086965 -0.020102168 -0.12280345 -0.033556003 0.18976447 0.23578358
0.18036751 -0.10337833 -0.010079454 0.32499975 0.18383083 0.05733792 -0.3209334 0.088270426
0.32610965 0.34764075 0.23057002 0.15579309 0.08692862 0.38863528 0.28662774 0.19226825
0.043888576 -0.16988988 -0.16897903 0.016381763 0.11865892 0.06327406 -0.009505099 0.1045273
0.109783754 0.084149554 -0.14689058 0.0909509 0.121671 0.19229196 0.21782278 -0.13764316
-0.11394883 0.15463804 0.1496252 0.15438879 -0.26937407 -0.14403571 -0.012270694 -0.20465209
0.07245536 -0.15078123 0.15494078 -0.0586874 -0.12636475 -0.048701588 -0.0123772705 0.08504858

layer2.0.bias f4 [16]
00000000: 7d6e bb3e a6aa 873e 6bda ac3d 4855 8cbe
00000010: e779 903e 5574 a33e 7063 ed3d c3e3 c5bb
00000020: 9257 71be 5362 883e ae3c ca3d 89a1 b4be
00000030: 6190 c0bd 23b1 b4be 25cf 003d fc82 dfbe
0.36607733 0.26497382 0.084400974 -0.27408814 0.28218004 0.31924692 0.11591232 -0.006039114
-0.23568562 0.26637515 0.09874855 -0.35279492 -0.09402538 -0.35291395 0.03144755 -0.4365462

fc4.weight f4 [120, 256]
00000000: c997 003d 5415 453d b944 583c 1568 89bd
00000010: 55ab 843d 8182 423e a030 8bbd 15e7 aabd
00000020: 95ce e53d ccdb 983c bbe2 713d a069 353d
00000030: 52dc 0d3d 35dc adbc e1c1 a5bd cb07 efbe
00000040: 969c 14be 98ce 8fbc 4f8d 253e ed7b e5bc
00000050: 755e 99be 096d 2a3e 3a1a 63bc 0b7f c7bd
00000060: 3172 323e 0c58 b33c a1bb c73e 479f 0d3d
00000070: ac83 e63d 243a e0bd 38f5 043c da01 dd3c
00000080: 7930 b6bd ab78 463d c26e 903e 7ecc babb
00000090: f09c 903d fea8 2d3e 0769 9fbd b7f0 213e
000000a0: fd74 57be 7297 0dbe 5479 c4bd b346 85bd
000000b0: 9b34 773d 1ff4 aebd 67c8 c7bd 3e8f 803c
000000c0: 3431 08bd 3e79 97bc c108 753e 25d9 0a3d
000000d0: a757 b2bd 0f79 f7bb 186b 02bc 5e67 8e3d
000000e0: 811d d13d 8de6 4ebe 2cf5 033d aae2 083e
000000f0: 75b5 57bd badd 61be 635e 3bbc 810a b83e
00000100: 9ec4 5c3d 765c eebd 9220 10be 1988 423c
00000110: 0070 e93c 9c96 4f3d 52ad 203e 4948 44be
00000120: 0429 6bbd 0742 693e 3327 943e 19b2 0abe
00000130: 59ca 8ebc a541 843e 93ed 123e 4bc7 91be
00000140: 8877 193e 2d03 b93c e569 5a3e 5168 2c3e
00000150: 0451 4e3e f343 ffbd c5bc 30bd 6937 adbc
00000160: 377d 1ebd c837 dfbd b261 a1bc 6167 5bbe
00000170: 51e2 bd3c a174 09be 344d aebc 12d6 f7bd
00000180: 0b40 413e c12b 413e 756b 0fbe 2380 8bbe
00000190: 8fa3 383e 7fc5 e03d d618 41bc f467 37bd
000001a0: c7f8 e33d 8365 b5bc 83d8 06be 5b52 153d
000001b0: b47b 72bd 2e1d 94bc 901f 8fbe c433 75bc
000001c0: f50c a43d dc0e cebd ca93 ef3d 314b 0c3c
000001d0: bbf7 3bbe 192e 3e3e 943b 113e 641d ad3c
000001e0: 1d53 0f3e 49d3 0a3e 0bb6 bc3c 6f71 9dbd
000001f0: 508b 42be 1802 ccbd b858 503c a0ae 20be
00000200: f1f0 323e b2fc 99bb 8ee1 2f3c 1f1e 803d
00000210: ad4f 093e ccd3 463e 5e40 71be ae96 1ebe
00000220: 649d bb3c b79e 4bbd 33cf 86be 8bd1 b7bc
00000230: 140c 9fbd 174f 98be cde6 913e fd76 783e
00000240: 0190 00bd afd7 ec3d f310 00be 1d57 6bbd
00000250: 655a 213c d7bb ee3d 667f 993c caea 0d3d
00000260: 5556 4e3d 0b11 cebc f665 643e 6903 d83b
00000270: c5c1 d2bd 544f 6e3c 7c4d 25bc 58fc 46be
00000280: 817e 20be 3b34 8e3d 0c6e 0abe 0560 003e
00000290: 52df 0cbd 024c 2dbe 3b50 4e3e 77ff 2a3e
000002a0: 059f a2bc 7c74 19bd 8362 d23e 64a4 a43d
000002b0: 8d7f 2fbe 2f90 063d 98e2 923c 8de3 84be
000002c0: d3d5 ba3d 8855 253d 725d e43d 5249 8f3e
000002d0: b406 b1bd 9ed8 08be a837 30bd decf 213e
000002e0: ed54 333d 394a aabd 4064 babe 4ab3 33be
000002f0: 4d94 683e 533f 0c3d 5df7 cfbe 6474 2bbe
00000300: fbf6 673d 7130 65bd c25c 113e d524 a5bd
00000310: 3109 213e ab78 cb3d b49a f23e dad2 dbbd
00000320: 7b46 a8bc 30b6 ddbe 1816 823d a4be 16be
00000330: af08 19bd d7d5 1abd 8903 b03d 55c8 58bd
00000340: e27e ccbd eb49 1d3e d823 03be 2ea6 55be
00000350: fb33 353d 1739 0b3e dc46 61bc 72bd 51be
00000360: 29ee 3e3e 3f78 af3d d9e0 fbbd e126 7bbe
00000370: 14be d8bb 8956 113e 79c6 2a3e 1d64 dc3d
00000380: 182d 1b3e 9084 d73d cba0 54be 3409 9ebd
00000390: fc22 e63d cbf4 dd3e c000 6b3e 08b2 a93d
000003a0: 383b 0dbe c95a 383e 9d91 92bc 39ae 073e
000003b0: 32ac 1ebe 0bc1 77bc 3a8e dabd ebf5 febd
000003c0: 1591 fdbd 21e1 f8bd 4d5a 853e dbbc bc3d
000003d0: 8e19 0e3c 4a55 cdbd 50d0 613d 2e66 5abd
000003e0: 4879 1ebd ff5a 9ebd 4988 20be 96e2 0fbe
000003f0: f7ea 10be d033 65bc 01ff 873e 0a93 483e
0.031394754 0.048116043 0.0131999785 -0.06709305 0.064779915 0.18995096 -0.06796384 -0.08344857
0.11221043 0.018659495 0.059054118 0.044290185 0.034633942 -0.021223167 -0.0809362 -0.46685633
-0.14512858 -0.017554566 0.16167186 -0.028013194 -0.29954877 0.16643156 -0.013861233 -0.097410284
0.17426373 0.02189257 0.39010337 0.034575727 0.11255583 -0.109485894 0.008115105 0.026978422
-0.08895964 0.04845492 0.28209502 -0.005700647 0.070611835 0.16958997 -0.07783704 0.15814482
-0.21040721 -0.13827303 -0.09593454 -0.065076254 0.060352903 -0.08542656 -0.097550206 0.015693303
-0.03325005 -0.01849043 0.2392912 0.03389849 -0.087081246 -0.007552273 -0.007960103 0.069533095
0.102107055 -0.20205136 0.032216236 0.13367715 -0.052663285 -0.22057238 -0.011436078 0.35945514
0.053898446 -0.11638729 -0.14074925 0.0118732685 0.028495789 0.05068074 0.15691116 -0.191682
-0.057412162 0.22779094 0.28936157 -0.13544501 -0.017430471 0.25831333 0.1434844 -0.2847236
0.14987004 0.022584522 0.21329458 0.16836669 0.20148093 -0.12464132 -0.043148775 -0.021144586
-0.038693633 -0.10899311 -0.019699905 -0.21426155 0.023179205 -0.13423397 -0.021277048 -0.121013775
0.18872087 0.18864347 -0.14005835 -0.27246198 0.18031143 0.109751694 -0.0117857065 -0.04477687
0.11131435 -0.022143131 -0.1316853 0.036455493 -0.059200004 -0.01808032 -0.27953768 -0.014965955
0.08010284 -0.10061428 0.116981104 0.008562849 -0.1835622 0.18572272 0.14182884 0.021132179
0.13996549 0.13557161 0.023036024 -0.07687651 -0.18998456 -0.09961337 0.012716465 -0.15691614
0.17474724 -0.004699313 0.010734929 0.06255745 0.134093 0.19416732 -0.2355971 -0.15487167
0.022902198 -0.04971191 -0.26329955 -0.022438785 -0.077659756 -0.2974784 0.284964 0.2426414
-0.031387333 0.11564576 -0.12506466 -0.057456125 0.009848212 0.11656921 0.018737506 0.03464774
0.0503753 -0.025154611 0.2230452 0.0065922034 -0.10290865 0.0145452805 -0.0100892745 -0.19432199
-0.15673257 0.06943556 -0.13518542 0.12536629 -0.034392662 -0.16923526 0.20147793 0.16699015
-0.019851217 -0.037464604 0.41090783 0.080391675 -0.171385 0.032852348 0.017930314 -0.25954857
0.09122815 0.040364772 0.11150636 0.27985626 -0.08643857 -0.13363883 -0.043021828 0.15801951
0.043782163 -0.08314938 -0.3640461 -0.17548862 0.22712822 0.03424008 -0.4061841 -0.16743618
0.056632023 -0.0559544 0.1419554 -0.08063666 0.15726162 0.09935125 0.47383654 -0.10733576
-0.02054142 -0.4330306 0.0635187 -0.14721161 -0.037361797 -0.03780159 0.08594424 -0.052925427
-0.099851385 0.15360229 -0.12806642 -0.20864174 0.044239026 0.13595997 -0.013749804 -0.20482424
0.18645538 0.08567857 -0.12298746 -0.2452655 -0.006614456 0.14193167 0.16677274 0.107612826
0.1515392 0.10523331 -0.20764463 -0.07716599 0.112371415 0.43350825 0.22949505 0.0828591
-0.13792121 0.18003382 -0.0178917 0.13250054 -0.15495375 -0.015121709 -0.10671659 -0.12449249
-0.12381188 -0.12152315 0.26045457 0.09215709 0.008673085 -0.10026033 0.055130303 -0.053320102
-0.03868988 -0.077322 -0.15676989 -0.1405128 -0.14152132 -0.013989404 0.2656174 0.19587341

fc4.bias f4 [120]
00000000: 5ffe 24bd aa44 053e 66e0 fabc 796b d1bd
00000010: 7728 003e 7bb8 66bd ac83 b83a a6ad f0bd
00000020: e789 5e3e f6c1 bebe 98f9 883e 5f7a ef3e
00000030: 68d7 eb3d a6c1 bd3c 3939 1d3d 0722 01be
00000040: 39d0 7f3d 185d b63d 1326 adbe 8b49 c53e
00000050: 17ad 8a3e b5f6 193e 40c3 803e bed6 7b3d
00000060: eab8 623e d9a9 2bbe 1b10 babc ff1f b43e
00000070: e685 b8bc bea0 583d da49 313d c946 e7bd
00000080: b370 bcbe 6921 343e 4b7e 9e3e 4262 83be
00000090: a8af 8abc ea39 2abe 491f 5bbe 36ec 64bc
000000a0: 02b2 67be b04a 1d3e 78ac 3d3e 380f 9abd
000000b0: 03ef 64bd c5bb 9bbe 3705 83be ed6b 85ba
000000c0: 65ce f43c ff4f b6be db42 ab3c e213 c9be
000000d0: ce08 a83e 650a 8e3e 9181 0abe 9f35 8dbe
000000e0: 4e1f 663e fe5a 753d 196a c2bd 92bd b3bd
000000f0: 1b18 0cbd 5ac0 fe3d a164 b43d 9447 503e
00000100: 730c 86bd 4124 5bbe bfa1 8bbe 3976 f73d
00000110: f682 4dbe a5bb 86be 38e8 8c3d ccbb 34be
00000120: 7ffc 9cbe e15d 26be 8e85 713e 1460 fcbc
00000130: 37fc 2cbe 3bb7 3b3e 50a8 ff3d 5437 0fbe
00000140: 5dd3 8ebe 8c1a 19be 4fa4 353e 3aff fbbd
00000150: 673e d73d 4a9d a63e 560d bebe 62b6 593e
00000160: a0e6 d9be 6f8c 443d 2a65 ef3e c215 91bd
00000170: b2cc f3bd c909 adbe a714 dcbc 6a4d 3c3e
00000180: 7114 9d3e d981 b83a 2db8 e7bc a61a 023e
00000190: e7b2 dfbd 8443 9cbc 5fd1 c1be 680a d7bd
000001a0: 66ab 7a3e fcb4 043d c621 aabe 1394 dcbe
000001b0: 32af bd3d c8de 803e 05a9 ca3c 426a a3be
000001c0: 7d1e a53d 5876 01be a518 fa3d 2bd4 4ebe
000001d0: c925 95be 3188 17be 0666 433e 71a2 193e
-0.04028165 0.13014475 -0.03062458 -0.10225577 0.12515436 -0.056328278 0.0014077327 -0.11751871
0.21732293 -0.37257355 0.26752925 0.4677305 0.11515695 0.023163628 0.03838465 -0.12610637
0.062454436 0.08904475 -0.3381811 0.3853267 0.27085182 0.15035518 0.25148964 0.06148409
0.22140852 -0.1676401 -0.022712758 0.3518066 -0.022524785 0.05288767 0.04328332 -0.11292798
-0.36804733 0.1759087 0.3095573 -0.25660902 -0.016929463 -0.16623655 -0.21398653 -0.013972333
-0.22626498 0.15360522 0.18522823 -0.07522434 -0.055892 -0.30416694 -0.25589916 -0.0010179259
0.029883573 -0.35607907 0.020905903 -0.39272982 0.32819217 0.27742305 -0.13525988 -0.27579972
0.2247288 0.05990123 -0.09492893 -0.08776392 -0.034202676 0.12439032 0.08808256 0.20339805
-0.06545343 -0.21400549 -0.2727184 0.12083096 -0.20069489 -0.26315036 0.0688023 -0.17649764
-0.3066139 -0.1624675 0.23586103 -0.030807532 -0.16893087 0.18331616 0.12483275 -0.1398595
-0.27895632 -0.14951533 0.1773846 -0.1230454 0.10509949 0.32541877 -0.3711955 0.2126098
-0.42558765 0.04798549 0.4675687 -0.07084228 -0.11904277 -0.33796528 -0.026865317 0.18388906
0.30679658 0.0014076784 -0.028286064 0.12705478 -0.10922795 -0.019075163 -0.3785505 -0.10500032
0.24479446 0.032399163 -0.33228892 -0.43081722 0.092619315 0.2516997 0.024738798 -0.31917006
0.08062456 -0.12642801 0.12211732 -0.20198123 -0.2913039 -0.14798047 0.19081888 0.15003373

fc5.weight f4 [84, 120]
00000000: de07 7b3d 19b9 85bd 2584 053d 22cd 283e
00000010: 584e 023e 3d07 7f3d a869 2fbe 48a6 2bbd
00000020: e003 113e 37b9 84bd 75a3 be3b 5bde 903d
00000030: 1dd2 80bb 27b6 8b3d c837 c7bd 59c0 81bd
00000040: b714 b93d 90e4 0abd eb68 eb3c da90 ab3d
00000050: ce91 11be d892 d73d 5562 143e 647e cc3d
00000060: 7cfa eb3d 3256 0bbe 6c63 e5bd 2e8a e73d
00000070: a0c6 233e cc91 e33d 0156 20be 38bf 3cbd
00000080: 73ab 8cbd 7379 343e aba7 fd3d 56ce 76be
00000090: b501 1f3e 7dd3 acbd 05e0 793d 500b c83d
000000a0: 8554 c73c 0bee f53d 7eb7 1ebb 9a43 333d
000000b0: 6bf1 07bd e5e2 503d 694a b63d 9c2a 12bd
000000c0: 02fb 19bd c757 04be b4ee 03bd a807 1cbd
000000d0: 8f97 97bd dbd4 66bd 81e5 a6bd 84f7 1dbe
000000e0: 3ee6 d13c 10f8 03bb 9f36 1b3d 6b27 093b
000000f0: 2bd9 e63c 7b95 193e ef99 453e 062c 72bd
00000100: d75b 14bd 3372 ffbd 1b2f 93bd 63ec 8e3d
00000110: 9d20 11bd 4b7c debd caec 9c3d 85e9 64be
00000120: 1ff7 1c3d 276e 10be 25a7 f2bc f0d3 40be
00000130: c3e8 e5bd 1b15 c83d 496e 1bbe b248 bb3d
00000140: b519 ce3a ac9a 6a3d 0b27 8b3c 506f e23d
00000150: 3f36 9dbc a255 323e abd8 a3bd 7e69 a5bd
00000160: 5d94 a73c a02d ea3b 29b6 bd3d 817d 82bd
00000170: d8d3 adbd 6e9f ec3c 245a 913d 0991 893d
00000180: 13c4 933c 1cd3 f13d 252a 9ebc b80e cf3d
00000190: a600 cc3c a044 2abd 0c84 8c3e 93aa 7a3d
000001a0: f65b 7c3d fb81 02ba 3ac1 f8bc 0e9f 1e3e
000001b0: 2ef6 e53d 5a67 74bc ed42 38be 4c39 583e
000001c0: ad95 e73d 355e a1bd 3dc0 31be 8932 f23d
000001d0: 8110 1ebe 8596 953c 84f5 763e 8e34 3cbc
000001e0: ef88 32be e330 633d 7419 b5bd 431f 82bd
000001f0: 3020 2f3e 06ab 67bc 67d4 d63c f22f 05bd
00000200: 03f8 cc3d a3c6 62bd 0b42 eabd b246 bebd
00000210: 0491 a6bd 09a0 1abe 4ce0 db3d 8c0a 093d
00000220: ae69 823d 77af b63d 144b 9d3b cc0f 10be
00000230: 1430 2fbe 050a 25bd c46b 1bbe 1dd1 cc3d
00000240: fccd 8f3d 3148 ecbc 3c46 513e ba41 ffba
00000250: 2941 8b3d 4600 06be af87 e5bd 5628 f3bd
00000260: c1e9 fa3c a6e8 14ba fb18 19bc 4641 17be
00000270: 3022 2d3e cf43 0c3c b190 29bd 1e3e 1dbe
00000280: ab52 a7bd 7dd1 473e 1d18 afbd d11a 603e
00000290: 0366 e93c db0d 13be 3332 83be 97d8 63bb
000002a0: c0c5 56bc c256 d83c 836f 2dbe d60e 8bbd
000002b0: 2096 34be c50c 39bd 6a33 0bbc 575a 203e
000002c0: c158 d83d f88d 373e 6081 2dbe 4887 49bd
000002d0: fe9a 8a3d bb9c ebbd 43c9 6d3d 9086 57bd
000002e0: a227 7abd cdae 543e 1f69 fabd d9f3 5a3d
000002f0: 0a0a f5bc e65c fe3c ab51 f2bd 11de f6bd
00000300: 81b1 043e 40bd 3dbe 14fc cabc f46a 313d
00000310: a371 a1bd 165e 0d3d aa5c ff3d 1dd5 803d
00000320: 09d6 04be ecb2 b2bc 7383 273c 8796 9b3c
00000330: 43b4 acbd 7825 cf3d 0c91 eebb f608 50be
00000340: 3eed b13d cc49 7e3d 0ab4 babb aa43 9e3d
00000350: 3d96 8a3c 11f6 4a3e d322 4cbe b2b0 aa3c
00000360: cdf7 5cbd 92a9 c3bb a05a 7b3d a798 b6bd
00000370: f5c6 e7bc 6ea5 9bbd 653c 8c3c ce18 0bbe
00000380: fb84 98bd ab90 783d 72df 08ba 3b16 51bc
00000390: 1d24 c53d 969a cf3d e30d d2bd c124 9f3d
000003a0: 2f6d bc3d 7e24 1cbe 7486 37bd 60d2 9abd
000003b0: 63fd 07be d35f e93d ded1 293e c0a6 96bd
000003c0: ef78 fd3d 2536 453e e826 1ebd 5e5a 013e
000003d0: 487d b93e 3d10 36be bedb 9f3d 37ae 5ebc
000003e0: dd80 99bd 8bd9 393e f509 613d 76cf 1ebd
000003f0: e32b 893d 0048 583c d263 7bbc 8ad9 5c3e
0.0612868 -0.06529445 0.032596726 0.16484502 0.12725198 0.062262762 -0.17130148 -0.041906625
0.14161634 -0.064806394 0.0058178254 0.07073661 -0.0039312975 0.06821852 -0.09727436 -0.063355155
0.09037154 -0.03390938 0.028736552 0.083772376 -0.14215776 0.10526055 0.14490636 0.099850446
0.115223855 -0.136071 -0.11200604 0.113056526 0.15993738 0.11111793 -0.15657808 -0.046080798
-0.06868639 0.17624454 0.12385496 -0.24102148 0.15527995 -0.08438776 0.061004657 0.09767783
0.024332294 0.12008294 -0.0024218257 0.04376564 -0.03318922 0.050997633 0.08900911 -0.035685167
-0.037592895 -0.1292411 -0.032210067 -0.03809324 -0.074019544 -0.05635534 -0.08149243 -0.15426451
0.025622483 -0.002013687 0.037893888 0.0020928036 0.028179726 0.14998429 0.19297002 -0.059124015
-0.036220398 -0.12472954 -0.07186719 0.06978681 -0.035431493 -0.10863551 0.076623514 -0.22354706
0.03832161 -0.1410452 -0.029620716 -0.18830848 -0.112260364 0.097696505 -0.15178789 0.09144725
0.0015724214 0.057276413 0.01698639 0.110563874 -0.019190906 0.17415479 -0.080003105 -0.08076762
0.020456487 0.007146552 0.0926326 -0.06371594 -0.084876716 0.028884616 0.07097271 0.067171164
0.018037831 0.11807844 -0.019307205 0.10110229 0.024902653 -0.041569352 0.27444494 0.06119783
0.06161114 -0.0004978475 -0.030365575 0.15490362 0.11228596 -0.014917219 -0.1799428 0.21115607
0.11307845 -0.07879297 -0.1735849 0.11826045 -0.15435983 0.01826025 0.24117094 -0.011487139
-0.17435049 0.055466544 -0.088427454 -0.06353619 0.17102122 -0.014139896 0.026224328 -0.032516427
0.10008242 -0.055365216 -0.11438378 -0.09290828 -0.08133128 -0.15100111 0.107361406 0.033457324
0.06367813 0.08920186 0.00480021 -0.14068526 -0.17108184 -0.04029276 -0.15177828 0.10000823
0.0702171 -0.028843017 0.20436949 -0.0019474544 0.06799538 -0.13086042 -0.1120752 -0.11872928
0.03062904 -0.0005680419 -0.009344335 -0.14770994 0.16907573 0.008561089 -0.041397754 -0.15355727
-0.081700645 0.19513507 -0.08549521 0.2188523 0.028491026 -0.14360754 -0.25624236 -0.0034766549
-0.013108671 0.026408557 -0.1693707 -0.06789939 -0.17635393 -0.045178194 -0.008496145 0.15659462
0.105638035 0.1792525 -0.16943884 -0.04920128 0.06767844 -0.11504503 0.058053266 -0.052618563
-0.061072953 0.20769806 -0.122270815 0.053455207 -0.029912014 0.031050157 -0.11831983 -0.120540746
0.12958337 -0.18529224 -0.024778403 0.04331489 -0.078830026 0.034513555 0.12468846 0.06290648
-0.12972273 -0.021813832 0.010224211 0.018992675 -0.0843282 0.101145685 -0.0072804745 -0.20315918
0.086878285 0.062082097 -0.005697732 0.0772775 0.016917342 0.1982043 -0.1993516 0.020836208
-0.05394726 -0.005971142 0.061365724 -0.08915835 -0.028293112 -0.075999126 0.017118642 -0.13583681
-0.07447239 0.06068484 -0.0005221284 -0.012761648 0.09626029 0.10136907 -0.10256555 0.07770682
0.092005126 -0.15248296 -0.04480596 -0.07559657 -0.13280253 0.1139523 0.16583964 -0.07356024
0.12376582 0.19258936 -0.038611323 0.12632129 0.36228395 -0.17779632 0.07805584 -0.013591341
-0.07495282 0.18149392 0.054941136 -0.03877207 0.06697824 0.01320076 -0.015343623 0.2156736

fc5.bias f4 [84]
00000000: f31d 2c3e ff6e 8cbd cd67 5bbd 7278 cebe
00000010: fbe5 35be e294 2abe 22e5 823d e398 cc3e
00000020: 661f fa3e 947e 19be 4cb4 bf3d db07 a13d
00000030: 69a3 a23d 6938 23be 6207 af3e 32c6 a6be
00000040: b9e0 e43d bc29 333e 7ba7 10bd 88db 3abc
00000050: 64bc 943d 2d90 8abe 3a35 ea3e c87d b2be
00000060: 9bcd e9bc 1ba9 293e 4264 1c3e ac14 893d
00000070: 2ded 613e 2f6b 06be f20f c5bd d14d a23c
00000080: db62 95bd 8a2d 95bd 56ff 5a3e 3249 693e
00000090: 0cb6 843e d187 b73d 4626 fcbc 8fa2 1bbd
000000a0: 9bb4 43be a774 adbe 47ff 793c 70bb 13be
000000b0: 181d 4e3e f91a 11be 8b57 f9bd 9e71 2a3e
000000c0: bfad 38be 064e fe3d 484a 9a3e d3d1 2abe
000000d0: 0fa7 83be 3f93 a23d 428c 79be ecfd d63d
000000e0: 85c0 fe3d 9d84 453d af1d e33d ff13 9d3d
000000f0: 9a42 f13d e454 2cbe eff7 093e e5b8 563e
00000100: 666e a639 10fa db3d e0ad 7abe 2bfe 05bd
00000110: 8cb9 bf3e e6df 21be b3da a23e 7433 083e
00000120: 1ab2 b83e 3307 103d 57b6 383e f4ae 0b3e
00000130: 80c2 98bd e11e d83d 93f4 373e 5e12 543e
00000140: be4b 523e b146 ed3b 9021 16bd a6a4 5f3d
0.168083 -0.06857108 -0.05356579 -0.40326267 -0.17763512 -0.16658357 0.0639136 0.39960393
0.4885208 -0.14989692 0.09360561 0.078628264 0.07941324 -0.15939488 0.3418532 -0.32573086
0.11175675 0.17496389 -0.03531597 -0.011404879 0.07262495 -0.27063122 0.45743734 -0.34861588
-0.028540423 0.16568415 0.1527262 0.06693396 0.22063132 -0.13126825 -0.09622182 0.019812496
-0.07294246 -0.072840765 0.21386465 0.22781828 0.2592014 0.08961452 -0.030779969 -0.037996825
-0.19111864 -0.3387806 0.015258617 -0.1442697 0.20128286 -0.14170446 -0.121749006 0.16644904
-0.18035029 0.124172255 0.30134797 -0.16681604 -0.25713393 0.07938241 -0.2436991 0.104976505
0.12439064 0.048222173 0.11089646 0.076698296 0.11780281 -0.16829258 0.13473485 0.20968969
0.0003174424 0.10741055 -0.2448039 -0.032713097 0.3744625 -0.15808067 0.3180748 0.13300878
0.3607338 0.035163116 0.18038307 0.13640958 -0.07458973 0.10552765 0.17964391 0.20710132
0.20536706 0.007241093 -0.0366531 0.05460038

fc6.weight f4 [10, 84]
00000000: 6d4c e73b e180 2abd d5f0 3a3d 241b 093e
00000010: 112b 773d 2cd3 e23d 8f6b 943d b3db 8fbe
00000020: 90e7 40be c7e5 dc3d dc5f 16be 061c ae3b
00000030: c351 c23d 95f4 e53d 84ef 57be 0caf 183d
00000040: 5a35 08be 3573 453d 6f42 3bbe f0f9 43bb
00000050: 82d4 11bd 1120 1e3e a7b3 3cbe b6ad 6f3d
00000060: 8b26 a1bd e151 5d3c f5da 15be e2ce 13bd
00000070: c9b1 0ebe a50c bebc 932c 4d3d 7375 b2bd
00000080: d9cc 25bd 5e41 353c e068 ddbd c755 5d3d
00000090: 0747 1dbe 2df3 2abe b7af 933d 48ff 953b
000000a0: 98f7 0b3e 1cae ba3d 109b 7c3e de89 dc3d
000000b0: 6e8b 29be c296 2a3e c6f1 883d 4594 8cbc
000000c0: 04cd c63d baaf 693d 37ab 4cbe 2ac8 873d
000000d0: 66eb 363d 0ec5 d7bc 95a0 973d 2116 66bd
000000e0: 96fd 17be 91b8 0d3d 0c8e 9bbd 2c44 debc
000000f0: f398 18bc 00a5 093d 9ccd 58bc b54f a7bd
00000100: 54b2 d23d 7806 31bd 8e76 963e 37f5 16bd
00000110: cd82 aebd 6df0 c83d 5730 91be 5072 49bd
00000120: 7c8c 53be e3e7 dcbd dabb 0dbe 0d53 30bd
00000130: d7b3 bd3c 3dee b93d a313 283d b4e7 6bbd
00000140: 2bfa 14be c5f9 243d 1fa6 54bc 50ee b8bc
00000150: 33cb 5c3d e701 a9bd 5cab e43d 6349 e9bd
00000160: 501d d53d 31bc 703e e8e1 843d 6f13 8b3e
00000170: 300e 8e3d acc8 0c3d 58fc 2bbd fcb8 6e3d
00000180: 0045 543e aa43 5c3e 289a 003e 1061 c03d
00000190: 47ea 423e e2b4 913d 67f6 9dbd f49d 923c
000001a0: 38d8 23bd e6dd 49bd 2346 84bd de07 20be
000001b0: dfc9 12bd eb02 a83d d994 96bd eb0a b4bd
000001c0: 3b13 73bc 9157 d8bc f359 a0bc faef e63d
000001d0: df1a a8bd 895a d93c 5e8a de3d 7457 423e
000001e0: 52e9 d8bd e300 5fbe 4f48 023e c176 85bb
000001f0: b310 c43c 8bcf 27bd 97a3 793e b605 323d
00000200: 78e9 35bd ad5f f53d fade 22bd f4ae aa3c
00000210: ebbc 41bd 790b 6d3d edac 7fbd 1ddc d43c
00000220: 10b9 913c 3b62 27bb 4e86 05be 1af6 063e
00000230: a4f6 9cbd 6695 203d 16c7 813d 0322 32bd
00000240: f4f4 e8bc 0905 983d 46be 533d 4979 d63c
00000250: 63d8 7ebd 052f 9bbc 7990 0bbe 3157 f9bc
00000260: 21d8 09bc 731d 073d 8a73 463e be98 99bc
00000270: 2142 6ebb 0aae 6dbd 451e 283c 0eae ec3d
00000280: 9af9 d03d e5b2 9e3d 441f c73c be40 c53d
00000290: 2643 edbb f92c 203d aa8c e1bd e834 2f3d
000002a0: b66c 5a3d 672c 053d acc1 9dbd 8cd9 44be
000002b0: 2ef6 d73d 8c8e 143e a2e4 f4bc d80a 0dbe
000002c0: 927f 003e 6761 b63b 071d 503e 82ef 0ebd
000002d0: 68f3 133e bace 3dbc ccd4 e43d 5a5a 3abe
000002e0: 455f 0e3e d1cc 173e 2c0b edbd 136a a3bd
000002f0: 7ae8 b8bd 187e 243d 37ac 653e 5568 cdbd
00000300: 6661 203e dc14 513d a7db 4b3e 7269 893b
00000310: 5784 5cbd c723 61bd 41d6 cc3d 1c08 b03d
00000320: 8307 b0bc 93a3 a5bc 21eb e9bb 57be ff3d
00000330: 71bd 92bc c779 113e b052 a73d dbd5 8abd
00000340: 1753 193d ee9b 643d 764d 1a3e 439d c23d
00000350: f435 ee3d 5bf1 333e 86b9 ac3d e0d1 27bd
00000360: 0fc6 20bd 4f72 473b 2c97 47bc 4019 e4bd
00000370: 5047 b93d 7bbd 11bd 7c8a 50be b94b 45bd
00000380: 076f b5bd 67bd 33bc 906c e23b 15ab 93bd
00000390: 8719 b03c d897 573c 90f9 c83d 38ee ddbd
000003a0: 5a43 2e3e 8d33 84bd 5cbd 073e ed67 be3c
000003b0: f390 4bbd 5540 5bbc b02e 41bd 9541 9a3d
000003c0: 6e9f b23d 172f a4bd 1840 94bd adc8 b8bc
000003d0: 7935 b0bd 738e 8c3d 7d20 a63c 8146 fd3c
000003e0: d8ef a2bd 4cfc 6cbc 21fc f6bd 35ce 1ebc
000003f0: 08ea 603e 5fc4 aebb 12ed b6bd 6eb6 2fbe
0.007058671 -0.041626815 0.04563983 0.1338926 0.060343806 0.11075434 0.07247078 -0.28097305
-0.18838334 0.10786014 -0.14685005 0.0053133992 0.09488251 0.11228291 -0.21087462 0.037276313
-0.13301602 0.048205573 -0.18287061 -0.0029903613 -0.035603054 0.1544192 -0.18427907 0.058515273
-0.078686796 0.013508291 -0.14634307 -0.03608597 -0.13935007 -0.023199389 0.050091337 -0.08713808
-0.04047856 0.011062948 -0.10811019 0.05403688 -0.15359126 -0.16694327 0.07211249 0.004577551
0.13668668 0.0911524 0.24668527 0.107684836 -0.16557094 0.16659072 0.066867396 -0.017160544
0.097070724 0.05705235 -0.19987188 0.06629975 0.044658087 -0.02633908 0.074036755 -0.056173448
-0.14842829 0.034599844 -0.07595453 -0.027132116 -0.00931381 0.033604622 -0.013232615 -0.081695
0.1028792 -0.04321906 0.29387325 -0.03685495 -0.08521042 0.098114826 -0.28357193 -0.049181283
-0.2065906 -0.107864164 -0.13841191 -0.043047953 0.023157043 0.090786435 0.041034352 -0.057594016
-0.14548557 0.04027726 -0.0129790595 -0.022574574 0.053904723 -0.08252316 0.11165497 -0.113909505
0.104059815 0.2350929 0.06488401 0.27163264 0.069363 0.034371063 -0.0419887 0.058281884
0.20729446 0.21510187 0.12558806 0.09393513 0.19034682 0.07114579 -0.07713013 0.017897584
-0.040001124 -0.049283884 -0.0645869 -0.15628001 -0.03583705 0.082036816 -0.07352609 -0.08791145
-0.014836128 -0.026408942 -0.019574141 0.11276241 -0.0820825 0.026532428 0.10866235 0.18978673
-0.10591377 -0.21777682 0.12722896 -0.0040729945 0.023933744 -0.040969413 0.24378811 0.043462478
-0.044412106 0.11981139 -0.03976343 0.020835377 -0.047299307 0.05787227 -0.062420774 0.025983864
0.01778844 -0.0025540728 -0.13039514 0.13179818 -0.076642305 0.039204977 0.06336801 -0.043489467
-0.028437115 0.074228354 0.05169513 0.02618088 -0.06221808 -0.01894332 -0.1362933 -0.030437084
-0.008413346 0.03298707 0.19380012 -0.018749591 -0.0036355334 -0.058027305 0.010261123 0.11556636
0.10203858 0.07748965 0.0243069 0.09631489 -0.0072406707 0.03910539 -0.11013158 0.042775065
0.05332633 0.03251305 -0.077029556 -0.19223613 0.10545002 0.14507502 -0.029894177 -0.13773668
0.12548664 0.0055658105 0.20323573 -0.03489638 0.14448321 -0.011584932 0.111734 -0.18198529
0.1390353 0.14824225 -0.115743965 -0.079792164 -0.090287164 0.040159315 0.22428976 -0.100296654
0.15662155 0.051045284 0.1990801 0.0041934783 -0.053837147 -0.05496576 0.10001803 0.08595297
-0.021487957 -0.0202196 -0.0071386253 0.12487476 -0.017912598 0.1420661 0.08170068 -0.06779071
0.037432756 0.05581277 0.15068612 0.095026515 0.116313845 0.17572539 0.08433823 -0.040971637
-0.039251383 0.0030433123 -0.012182038 -0.111376286 0.09046805 -0.035581093 -0.20365328 -0.048167918
-0.088590674 -0.01097045 0.0069099143 -0.07210366 0.021496547 0.013158761 0.09813225 -0.10836452
0.1701788 -0.06455145 0.13255829 0.023242915 -0.04969878 -0.013382037 -0.047163665 0.0753204
0.08721815 -0.08016794 -0.072387874 -0.022556627 -0.08603949 0.068631075 0.020279163 0.030917408
-0.07955903 -0.014464449 -0.120598085 -0.009692718 0.21964276 -0.005333468 -0.08931936 -0.17159435

fc6.bias f4 [10]
00000000: 3a76 00bf 5d27 853b e68a 4a3e 2603 be3e
00000010: 02f1 d8bd 25d8 b5bd 0554 45bc 47ed 37bd
00000020: 6986 6a3d b0e0 f2bd
-0.501804 0.0040635304 0.19779548 0.37111777 -0.105928436 -0.08879117 -0.012043958 -0.04490402
0.05725709 -0.11859262
