model_history/model_lenet5_220510_weight.pt (torch, 180807 bytes, 10 tensors)

layer1.0.weight f4 [6, 1, 5, 5]
000000 b6 f7 db 3d 81 05 8f be ea 45 1c be d3 5d 67 3d
       0.107406065 -0.27933887 -0.15261045 0.056485962
000010 cf 3d 9d 3d b6 98 17 3e dd 7c ee be 48 c0 c0 be
       0.07677805 0.14804348 -0.46579638 -0.376467
000020 79 ac 00 be 7e 6c 53 3e 7a c2 dd be 7e 4a f8 be
       -0.12565793 0.20646855 -0.43312436 -0.48494333
000030 00 01 d6 be be fd 06 3e 7c a4 be 3e 47 e7 00 bf
       -0.41797638 0.13182732 0.37234867 -0.503529
000040 ec 05 17 be d2 7f 4e bd a2 56 bf 3e 78 dc 81 3e
       -0.14748353 -0.050414868 0.37370783 0.25363517
000050 c9 d5 8a bc d6 b8 54 3e b4 03 b1 3e 39 18 b8 3e
       -0.016947644 0.20773634 0.34573138 0.3595598
000060 3f e4 71 3e b2 22 9a 3c e5 14 19 be a8 b9 3d be
       0.23622225 0.018815372 -0.14949377 -0.18527853
000070 74 25 0f be 98 c7 21 bd ce 57 a2 3e 08 84 e2 3e
       -0.13979131 -0.039496988 0.31707615 0.44241357
000080 b3 39 8d 3e f2 f5 85 3e ec 46 55 3d 57 6a c1 bd
       0.27583084 0.26164204 0.05206959 -0.09444111
000090 25 07 77 3e 77 07 04 be 1c e7 02 3e c5 bc 19 3e
       0.24123819 -0.12893473 0.12783474 0.15013416
0000a0 49 0e a5 ba ed c8 81 be c8 ec 5f be 50 e9 68 be
       -0.0012592758 -0.25348607 -0.21867669 -0.22745252
0000b0 97 6a 74 bd 72 b8 81 3d 00 ce 46 bd 93 79 94 be
       -0.059671964 0.06334008 -0.0485363 -0.28999004
0000c0 52 54 9f 3c ec bc a8 3e ab 42 a6 3e 93 08 c6 3e
       0.019449387 0.32956636 0.3247274 0.38678417
0000d0 c0 34 8a 3b 16 70 6a be fa 75 98 be 5f e1 3f 3e
       0.004217714 -0.2289432 -0.2977751 0.18738316
0000e0 fa c4 15 3f dd b9 6f 3f 3e 2a 30 3f e9 6a c2 3e
       0.5850369 0.9364298 0.68814456 0.3797219
0000f0 e9 df 5e bd c6 6e da 3c 5f 82 5e 3e cb 8d eb 3e
       -0.054412756 0.026664149 0.2172942 0.46006617
000100 29 e8 c7 3e ef a7 b4 bc 79 58 83 be 8e 6a 82 be
       0.39044312 -0.022052733 -0.25653437 -0.2547192
000110 32 09 62 bd 70 b9 89 3e 32 9d 90 be ff 81 97 be
       -0.05518455 0.2689929 -0.2824493 -0.29591367
000120 61 47 78 bd 52 20 4e be 73 0c 11 3e d2 27 81 bd
       -0.060614947 -0.20129517 0.14164905 -0.06306423
000130 68 28 c2 be 06 21 eb be 51 0f 38 be 67 cd 9d 3a
       -0.37921453 -0.45923632 -0.17974593 0.0012039364
000140 54 c8 11 3e c2 72 e5 ba 62 6f eb bd 07 2a 8c 3e
       0.14236575 -0.0017505514 -0.11495854 0.27375814
000150 3b 2a 69 3e 0b 6e b0 3e 09 25 51 3e f0 50 70 3e
       0.22770016 0.34458956 0.20424284 0.23468375
000160 d4 02 89 bb 4f d3 8a 3e b6 03 86 3e ad bf 0d 3e
       -0.0041812453 0.2711434 0.26174706 0.1384265
000170 83 ac e5 bc e0 ef 19 3d 0b b4 00 be 84 da 36 3c
       -0.028036362 0.03758228 -0.12568681 0.011160497
000180 3d c9 08 be e4 da 83 be f0 3c 5b 3c be df 1f be
       -0.13358016 -0.25752938 0.013381228 -0.15612695
000190 ce 72 30 3e 09 e7 64 3e 88 a7 df bd 98 b2 52 be
       0.17231295 0.22353758 -0.10920626 -0.2057594
0001a0 cd 9b 82 be d2 49 0f 3e f3 e5 38 3e 4e 03 1e be
       -0.25509492 0.13993004 0.18056469 -0.15430948
0001b0 9f 81 29 bf ea e1 0d bf 10 ab 98 3e 36 8e 7f 3e
       -0.6621341 -0.5542284 0.2981801 0.24956593
0001c0 ac 13 3e be 71 d2 a2 bf 29 5e 16 be cb b1 48 3d
       -0.18562192 -1.2720472 -0.14684357 0.04899768
0001d0 96 44 23 3d 1f fb ca be ac ab 74 bf 21 36 23 3e
       0.03986033 -0.39644715 -0.9557445 0.15938617
0001e0 13 59 a7 3e 49 83 db bd 58 53 3d bf 5d 48 15 bf
       0.32685146 -0.107184 -0.739553 -0.5831354
0001f0 e7 e4 08 3e d7 da 58 3d 72 6b 0f 3e 7e a6 c3 be
       0.1336857 0.052943077 0.14005831 -0.3821296
000200 d9 67 f2 be 0f 92 ac be ab b1 3b 3e c8 9d 2e be
       -0.47344854 -0.33705184 0.18329494 -0.17052376
000210 9d 31 15 bf f0 a8 32 bf 38 fd e1 be 80 14 cf 3d
       -0.5827883 -0.6978903 -0.44138503 0.10111332
000220 71 ae ea be 19 4e 81 be b9 43 84 be 4e b1 3c 3e
       -0.45836213 -0.25254896 -0.25832918 0.18427011
000230 d2 cc 52 bc 5a 9e 69 3e a7 84 55 3e 67 68 98 3e
       -0.012866216 0.22814313 0.20851384 0.29767153
000240 a8 81 dc 3e ec 64 81 3e 9b bd 14 3f 29 d7 a6 3e
       0.4306767 0.2527231 0.58101815 0.3258603
000250 c7 5e f3 3e 1f 49 7a 3e
       0.47533247 0.24441956

layer1.0.bias f4 [6]
000000 b8 a2 2b be 13 19 c4 bd 70 ee ec bd 19 1a a0 3c
       -0.16761291 -0.09575095 -0.11568916 0.019543694
000010 d1 d9 0c 3e ec 86 a8 bc
       0.13754965 -0.020572148

layer2.0.weight f4 [16, 6, 5, 5]
000000 26 be f6 3c a4 f9 82 3d b4 01 36 3c ae 2a 80 bd
       0.030119967 0.063952714 0.0111088045 -0.062581405
000010 74 20 89 bd 28 c9 04 3d 0c 45 80 3d 3a 41 32 be
       -0.06695643 0.0324184 0.0626317 -0.17407694
000020 38 2c ff 3b 9e b6 ef bd 4e f7 21 bc 12 f0 33 3d
       0.0077872537 -0.11704753 -0.009885622 0.04393012
000030 11 66 d1 bc c9 72 9f bd 7e f2 43 be f3 6f 17 3d
       -0.025561364 -0.077855654 -0.19135472 0.036971997
000040 d6 62 04 3d 20 c3 40 be 0a b8 61 bd 22 cd 8e bd
       0.03232082 -0.18824434 -0.055107154 -0.0697272
000050 d4 6c 9d bb 8b 1e 1e 3d 15 be e4 bc 2f b1 91 3d
       -0.004804233 0.038603347 -0.02792267 0.07113873
000060 f1 5e 2f 3c 71 bb d1 b9 8a a8 01 bd 67 38 fc ba
       0.010703788 -0.0004000324 -0.031654872 -0.0019242883
000070 19 20 67 3d 15 46 ed bd bb ee 36 3d 41 47 2d 3e
       0.056427095 -0.11585633 0.044661265 0.16921712
000080 c9 9e 50 3d 2e 90 1c 3e 1f e2 9d bd f4 bc 1d bd
       0.05093268 0.15289375 -0.07709145 -0.038510278
000090 cb 30 1c 3e bd c0 fb 3c 3f e6 03 3d 61 b3 2c bd
       0.15252988 0.030731553 0.032202 -0.042163257
0000a0 1b 2c 86 be 78 f7 56 bd 18 96 82 bc 89 be 24 3e
       -0.26205525 -0.0524821 -0.01594071 0.16088308
0000b0 96 9d 1e be 05 c4 40 3b 55 37 2e 3d 87 62 71 3d
       -0.15489802 0.0029413712 0.042533237 0.058931854
0000c0 67 3b 38 bd 0a fe 24 be 27 d6 81 bd 88 f3 7a 3d
       -0.044978525 -0.16112533 -0.063396744 0.061267406
0000d0 64 7b 05 3e 8f 25 e1 3d dd 36 3e 3c 47 12 cc 3d
       0.13035351 0.10993492 0.01160976 0.099644236
0000e0 68 fb 4e 3e 62 85 42 3c 49 0a 96 3d ee 83 8e 3d
       0.20213091 0.011872621 0.073261805 0.06958757
0000f0 ca a4 80 3d 78 1c 44 3d f3 e4 25 be 02 0d 03 be
       0.06281431 0.047878712 -0.16200618 -0.12797931
000100 a4 1e 46 bd 8b 4f 02 bc 09 33 1e 3b 2b 72 0b be
       -0.048369065 -0.007953535 0.0024139306 -0.1361777
000110 a8 05 8c bd d8 a5 a5 bd 31 67 0b be 01 dd 99 bd
       -0.06837016 -0.08088273 -0.13613583 -0.07512856
000120 27 26 0f bd f3 8a 63 bd e8 89 5c bd 28 e2 45 bd
       -0.034948494 -0.055552434 -0.053842455 -0.048311383
000130 ed 3a 55 bd 66 f4 dd 3b cb 95 13 3e c6 82 91 3b
       -0.05205815 0.0067735193 0.1441261 0.0044406382
000140 0a f6 38 3d 85 46 a6 3d df bd 6e bd 4f c9 2b 3d
       0.045156516 0.08118919 -0.058286544 0.04194003
000150 85 08 5c bb d0 28 b3 bd fd cd 08 be f7 70 ca bd
       -0.0033574414 -0.08748019 -0.13359828 -0.098848276
000160 e4 1e 0c 3e f5 bf a6 bd a2 50 c1 bd da cf e6 3d
       0.13683659 -0.08142082 -0.094392076 0.11270113
000170 c7 0a 0a be ef 08 f9 3b 7e af ff bd 51 33 a6 3b
       -0.13480674 0.007599942 -0.12484644 0.0050720354
000180 a9 2b 7d bd 64 0e 91 bd 11 93 b1 3c 38 51 c1 bc
       -0.061809216 -0.07082823 0.021676572 -0.023598298
000190 2b fc b7 3d 2c 27 08 3e 80 c0 79 3c bc 00 37 bc
       0.08983644 0.13296193 0.0152436495 -0.011169609
0001a0 36 3c 5e bc 28 ac 56 3e 1e 73 11 3e 91 7a 48 3e
       -0.01356416 0.2096411 0.1420407 0.19578005
0001b0 92 0f 21 3e ba 43 0a bc e3 87 f5 3d 7e 55 70 bd
       0.15728596 -0.008438999 0.11988809 -0.05867528
0001c0 c9 36 6b bd fc f3 9e bd b1 16 a6 bd d9 4e b5 3c
       -0.057425294 -0.0776138 -0.08109797 0.022132324
0001d0 4d 19 2a be 30 ec 4c be cf 99 ee bd 54 bc bd bd
       -0.16611214 -0.20011973 -0.116504304 -0.09264436
0001e0 df f6 77 3c 12 8c 82 bc a4 4c 11 3e 3f 95 96 bd
       0.015134542 -0.015935931 0.14189392 -0.07352685
0001f0 88 69 20 bc 61 d6 9f 3d de a0 28 3e 5c 3c fb 3c
       -0.009790786 0.078045614 0.16467616 0.03066843
000200 49 0c ef 3d c3 2f a7 ba e6 66 8a bd c6 0a 46 3c
       0.11672265 -0.0012755323 -0.067579076 0.0120875295
000210 18 d3 ba bc a2 66 b4 3d f8 1f 48 bd cc 27 74 bc
       -0.022805735 0.08808638 -0.048858613 -0.014902066
000220 b0 2d 7f bd 20 5d 63 3e b6 cb fd 3d e9 fe d4 bd
       -0.06229943 0.22203493 0.123923704 -0.10400183
000230 72 d4 fa 3d 7d b1 8e bd cb d4 8f 3c f1 b4 10 3e
       0.12247552 -0.06967447 0.017557522 0.14131524
000240 bc e5 b2 3d 0c e5 2f bd ae 7b 49 3d c9 04 29 bd
       0.087352246 -0.042943045 0.049190216 -0.04126433
000250 c6 6f 8a 3d c9 44 59 bd d7 ee a3 3d 9f 0c 5c 3e
       0.067596 -0.053044114 0.080045395 0.2148919
000260 2d df 11 3c d0 5e ec 3c c6 3a 3b 3e 21 95 3c 3e
       0.008903307 0.028853804 0.18284139 0.18416263
000270 58 69 86 bd 7f c6 3e be fa 9e 0e 3c 53 2f b6 3d
       -0.065630615 -0.18630408 0.008704895 0.08895745
000280 b3 4c 25 be c7 81 46 be 62 ae 4f bd b6 4a 5e 3d
       -0.1614254 -0.19385444 -0.050703414 0.05427047
000290 5f a7 66 bd 77 cd 54 3d 20 69 b6 3d 07 b7 70 3d
       -0.05631196 0.05195376 0.0890677 0.0587683
0002a0 10 69 2c 3d 50 f8 cb 3c 52 17 c5 3d 30 f8 5d bc
       0.042092383 0.024898678 0.096235886 -0.013547942
0002b0 3a a6 90 3c 84 47 b3 bc 0d e9 0a 3d 4c 20 30 3d
       0.017657388 -0.021884687 0.03391366 0.04299955
0002c0 c8 d6 f3 bb 0c 99 9d bd 3e 96 37 3e 94 77 42 3e
       -0.0074413754 -0.07695207 0.17928407 0.18990928
0002d0 07 b9 2a 3c 61 fe 30 3d ab 57 58 3e 3e fc 46 3a
       0.0104200905 0.043211345 0.21127193 0.00075906876
0002e0 a6 9a 0a be c6 f3 fa 3d 52 63 2c 3d 80 b4 d2 bd
       -0.13535556 0.12253527 0.042086907 -0.10288334
0002f0 a1 dd ac bd 21 7a 30 bd be fe 26 3e 31 41 ca bd
       -0.0844071 -0.04308522 0.16308114 -0.098757155
000300 d8 1d 16 bd a7 eb 6d 3d 4b 80 e2 bb 02 40 c7 be
       -0.036649555 0.058086064 -0.0069122664 -0.38916022
000310 27 82 2e be ca b8 2f bd fa b3 83 3c 4b e0 ce bd
       -0.17041837 -0.042900838 0.01607703 -0.10101374
000320 62 b2 d6 3c e0 27 9e bd b3 f8 52 bd 2d d5 33 3d
       0.026208106 -0.07722449 -0.05150671 0.043904472
000330 03 6f da 3d b4 4f 47 ba f3 44 2d bd aa 85 9e bc
       0.10665705 -0.0007603124 -0.042302083 -0.019350845
000340 6a 5c cd bd 74 8d 3c be 2c 87 33 bd ee 73 89 bd
       -0.10027392 -0.18413335 -0.04383008 -0.06711565
000350 27 65 8b bd 88 89 88 be 59 d8 0e be 12 c1 40 be
       -0.06806403 -0.26667428 -0.13949718 -0.1882365
000360 7a 05 92 be 56 5a 19 be 48 9e 72 be d0 d7 bc bd
       -0.28519803 -0.14975867 -0.23693192 -0.092208505
000370 26 f7 84 be ea 30 77 be 02 b0 83 be 51 30 08 bd
       -0.2596981 -0.24139753 -0.2572022 -0.033249203
000380 e6 08 12 be 23 c3 cd bc 89 08 a6 3d bb 4b 42 3e
       -0.14261207 -0.025117463 0.08107097 0.18974201
000390 07 a7 19 3e 40 0b 1f be ff 2a 1b 3d 18 d0 fa 3b
       0.15005122 -0.15531635 0.0378828 0.0076542012
0003a0 71 b5 72 bc 20 09 28 3d 2d de 45 3d 87 3c ff 3d
       -0.014813767 0.041024327 0.048307586 0.124627165
0003b0 31 0a f0 3b 79 62 10 be 56 0e 58 bd ec 5b 6e 3c
       0.0073254337 -0.14100064 -0.052748047 0.014548283
0003c0 88 31 94 bd 8b 7a 8b bd 41 d9 26 3d 35 5e 93 bd
       -0.0723601 -0.068104826 0.040734533 -0.07195703
0003d0 39 42 07 be 48 fc 07 3c de 79 5d 3d 52 61 7f 3d
       -0.13208856 0.008299895 0.0540713 0.06234867
0003e0 9f 99 36 bd e0 a1 f4 bd 84 33 98 bd 29 7d 6e bc
       -0.0445801 -0.11944938 -0.07431701 -0.014556208
0003f0 37 14 c1 bc 5d b2 6a be 96 7a 9f be ed 9b 09 be
       -0.02356921 -0.22919603 -0.31148213 -0.13438387

layer2.0.bias f4 [16]
000000 52 07 d6 3d 50 79 cd bc b3 50 06 be 8d c7 c3 bd
       0.10450615 -0.02508226 -0.13116722 -0.09559546
000010 c9 2f 25 3d 78 be 00 be 68 28 c2 bd 09 9c 17 3e
       0.040328775 -0.12572658 -0.09480363 0.14805616
000020 e0 da 34 3d 8f da 93 bd 42 3d 2c be 74 0b 50 bd
       0.044154048 -0.07219421 -0.16820243 -0.050792173
000030 f1 fd 09 3e b9 c5 ad 3d 3e 1d 82 3c c7 00 c5 3d
       0.13475777 0.08484978 0.015883084 0.09619289

fc4.weight f4 [120, 256]
000000 90 10 82 bc e3 fd 8a 3d f6 d9 03 3e 38 30 ab 3d
       -0.015877038 0.06786706 0.12876114 0.08358806
000010 5e fc 0b be b5 48 96 3d 6b eb 14 be eb ec 54 bd
       -0.13670489 0.073380865 -0.1454293 -0.051983755
000020 e2 14 f2 bd 5c fc bd 3b 71 d3 7e 3d e4 c3 29 bd
       -0.11820389 0.005797906 0.062213365 -0.04144658
000030 8c 20 cf bd 74 0e 31 bd e1 ed 78 bc db 65 18 3d
       -0.1011363 -0.043226674 -0.0151934335 0.037206512
000040 94 79 e4 3c 2b 48 19 be 53 2e 6a ba 1f 84 43 3e
       0.027890004 -0.14968936 -0.00089332944 0.19093369
000050 6a 5d 8c 3d 37 1a ca 3d 27 5d ef bc f8 da a5 bd
       0.06853755 0.09868281 -0.029219223 -0.080984056
000060 01 fb bf 3d 81 f0 45 be 86 1e a6 bd 35 3c 41 3e
       0.09374047 -0.19330026 -0.08111291 0.18870623
000070 76 fe 55 3c 64 51 7a bc ac f9 fb bd 77 3b 2a be
       0.0130611565 -0.015278194 -0.123034805 -0.16624247
000080 d3 28 4c 3e 3c 8d b9 bd f2 fd e1 bd be 50 c3 3d
       0.19937448 -0.090601414 -0.11034764 0.09536885
000090 3b 26 40 be ea 03 22 3e fb 84 9a 3d c0 2e 2e bc
       -0.18764584 0.15821806 0.07544895 -0.010631263
0000a0 7f d0 15 be 82 45 dd bd 77 1b 71 bc 23 12 b7 bd
       -0.14630316 -0.10804273 -0.014716021 -0.08939006
0000b0 f2 31 36 be 6a 17 d7 bc e8 cd 31 be cb 48 09 3e
       -0.1779249 -0.026256282 -0.17363703 0.13406675
0000c0 9c 64 17 bd 33 8c d6 3d fb 37 04 bd 94 83 11 be
       -0.036961183 0.1047596 -0.03227995 -0.1421035
0000d0 2b cb dd bd 02 61 c0 3d 4f 9a e2 3b 32 02 f2 bd
       -0.10829767 0.09393503 0.0069153677 -0.11816825
0000e0 a4 f2 0e be c9 5a 76 3e 77 01 0f 3e 4b 9c 84 3d
       -0.13959748 0.2405807 0.13965403 0.06475123
0000f0 cf 34 69 be ff d2 48 bc 6f 6e cb bd e5 2a e7 3d
       -0.22774051 -0.012257337 -0.09933173 0.11287478
000100 7d 7b 1d 3d ea 4e 70 3c 3a 39 01 bd 7d a2 cb 3b
       0.038447846 0.014667252 -0.031548716 0.0062144385
000110 45 68 31 3d c0 de 98 bd c5 25 c2 3d 7c 5c 0c 3e
       0.04331233 -0.07464361 0.0947986 0.13707155
000120 eb 49 09 3e ec c4 d2 3d 4b b7 49 3e 8a 86 de 3d
       0.13407104 0.10291466 0.19698827 0.10865505
000130 95 bb be bd 7b 24 b8 ba c4 ba 12 bc 52 3c ca 38
       -0.09313122 -0.0014048958 -0.008955661 9.643346e-05
000140 00 cb 94 bd 99 0f 48 bc 43 c1 da bd 49 d9 3c bd
       -0.07265282 -0.01221075 -0.10681393 -0.046105657
000150 ab 50 2f bd 7b 5a 56 bd 62 c4 55 3d fa cd ab 3d
       -0.04280154 -0.052332383 0.05218924 0.08388896
000160 69 a1 a0 3e 98 f3 fc 3d e8 07 0f 3e 52 9c 5c bc
       0.31373146 0.12351149 0.1396786 -0.013465004
000170 84 33 79 3e aa df 21 3e b4 ce e4 3d 77 06 90 bd
       0.24336058 0.15807977 0.11172238 -0.07032483
000180 93 bc 22 be 7e 32 27 be b9 ff 08 be 26 82 0d 3e
       -0.15892248 -0.16327855 -0.133788 0.13819179
000190 a1 d4 77 bd f5 2a cd bc 0c 69 28 be 30 7c f5 3d
       -0.060505513 -0.025044898 -0.16446322 0.119865775
0001a0 d7 15 21 be 3f 97 6d 3e bf 72 d0 3d 4e f2 82 bd
       -0.15730987 0.23202227 0.10178136 -0.06393872
0001b0 19 17 1a 3c b2 d5 ac 3d 03 e5 83 3e 1c 60 2d bd
       0.009404921 0.08439197 0.2576066 -0.042327985
0001c0 c9 b2 b9 bd c0 64 e1 bc 01 1b 53 be 17 a9 d4 bd
       -0.09067304 -0.027513862 -0.2061577 -0.10383814
0001d0 36 aa 06 bd e8 2a d1 bd c6 63 af bd 55 e0 21 bc
       -0.03287717 -0.10213262 -0.08563952 -0.009880145
0001e0 a5 e0 e6 bd 6f 26 a5 be a9 1d d0 3d 93 27 dd 3d
       -0.11273316 -0.32255885 0.10161907 0.10798564
0001f0 15 e2 2d bc fc a4 cf 3c 7a bf 00 be cb ef 9a be
       -0.010612984 0.025347225 -0.12573043 -0.30261073
000200 74 e7 51 3d ea de dc bd 9c fa b6 bc ec b4 5e bd
       0.05124612 -0.10784705 -0.022336297 -0.05437176
000210 cb 26 2e bd c0 e5 de bc 26 d2 29 be 45 1a 30 3d
       -0.042517465 -0.027209163 -0.16584072 0.042993803
000220 bb a5 8e bd 31 98 d4 bd e9 d7 67 3d cb 8f f1 3a
       -0.06965204 -0.10380591 0.056602392 0.0018429694
000230 85 d3 89 3b 31 52 91 bd a2 76 91 3d 80 31 a0 bd
       0.0042061233 -0.07095755 0.071027055 -0.078219414
000240 b2 ba 53 3c 4f 89 25 bd a9 b6 87 3d 75 b8 9f 3d
       0.01292293 -0.04041415 0.066266365 0.07798854
000250 85 25 f9 bc 1b 22 84 bd a0 ae 9a 3d a7 a5 84 3d
       -0.030413399 -0.064518176 0.07552838 0.06476908
000260 49 73 13 be ff ce b3 3d f5 a0 a5 3d 24 b2 0c bd
       -0.14399447 0.08779716 0.08087341 -0.034349576
000270 fb 3a 87 3d e3 17 37 be 4e 76 45 3e 91 d1 f4 3d
       0.066030465 -0.17880206 0.19283411 0.11954034
000280 f5 4b 85 3d ac f9 e8 3d 74 31 97 bd 72 57 12 3d
       0.06508628 0.11375746 -0.07382479 0.035727926
000290 79 2b 3a 3e 25 4a bd 3d 5c 30 bb bd fc ba 4c bc
       0.18180646 0.092426576 -0.09140083 -0.012495752
0002a0 d9 ce 70 bd ed 41 01 3e b6 a0 a7 3d 2c fc ec 3d
       -0.058791015 0.12622805 0.0818495 0.115715355
0002b0 60 7e a0 bc 5a 6d ee 3d 2e 03 9e 3c 5e 33 42 bc
       -0.01959151 0.11641951 0.019288626 -0.011853067
0002c0 0a 41 59 be 2a 80 7f bd 73 29 9d 3d 82 74 ed bd
       -0.21216217 -0.062378086 0.076739214 -0.11594488
0002d0 47 ff 09 be 97 85 bd bd f1 3e 5d bd 7e 97 a1 be
       -0.13476287 -0.09253996 -0.054015104 -0.31560892
0002e0 4a 94 39 be 64 bb 91 3b 07 a8 02 3d d8 45 bf bd
       -0.18122974 0.0044473875 0.031898525 -0.093394935
0002f0 ad 99 a1 be 99 19 b0 be d7 8c c0 bd ef eb d4 3d
       -0.31562558 -0.3439453 -0.09401863 0.10396563
000300 37 61 8e 3d 1b 26 22 3e fa 80 ad 3d 08 4b 84 bd
       0.06952136 0.15834849 0.08471866 -0.064596236
000310 ea d7 b6 3c 4c 7c 45 3e d3 71 13 be 74 32 09 3d
       0.022319753 0.19285697 -0.14398889 0.03349538
000320 7f fe 8b bc f8 35 ed bd b9 d0 8c 3d e5 14 21 3d
       -0.017089127 -0.11582559 0.06875748 0.039326567
000330 36 69 02 be cd 9d 94 bd 9c 8b 69 3d 2e 30 9a 3c
       -0.12735447 -0.072566606 0.057017908 0.018821802
000340 8b 97 7a 3d fc e5 8b ba b9 0f 26 3d 6e 01 91 3d
       0.06117968 -0.0010673399 0.040542338 0.07080351
000350 1c 09 d8 3d a8 4e c7 bc 4c 5e 91 3d 19 43 0c be
       0.105486125 -0.024329498 0.07098064 -0.1369747
000360 6d 61 14 3d 7f 97 09 3e ad 26 40 3d 9a 14 35 be
       0.036225725 0.13436697 0.046911884 -0.1768364
000370 21 76 21 3e e9 ad 70 bd 0e c9 26 bd ed 45 f8 bd
       0.15767719 -0.058759604 -0.040719084 -0.12122712
000380 cd db 85 3c 47 c4 4a ba 44 74 22 3e 4c a8 65 bc
       0.01634016 -0.0007734936 0.15864664 -0.014017176
000390 ae 17 cc bc fa 9a 11 3d 3e 60 2e bd 8b 1e 18 3e
       -0.024913635 0.035548188 -0.042572252 0.14855401
0003a0 6f 4e b6 bd 7d 63 56 be e5 94 fb 3c 62 b5 f0 3d
       -0.08901679 -0.2093639 0.030710647 0.11753346
0003b0 11 7c 19 be ea e9 0d 3e a0 9d 05 3d 74 40 6f bd
       -0.14988734 0.13858762 0.032621026 -0.058411077
0003c0 cd 70 ae 3c ec 16 b9 3c 65 36 cb 3c b2 ec fe 3c
       0.021294022 0.022593938 0.02480621 0.031118724
0003d0 f4 e8 a4 3d 2a d8 26 3d 61 78 f6 3d 55 82 8f 3d
       0.08052245 0.040733494 0.12034679 0.07007281
0003e0 33 30 0b be 77 6d 88 3d 51 33 dc 3d 54 3d 92 3d
       -0.13592605 0.06661504 0.10751975 0.07140604
0003f0 ae 5d 41 be bf d9 59 3c e6 1a 1e bd e9 de 9d 3c
       -0.18883392 0.013296544 -0.03859987 0.01927133

fc4.bias f4 [120]
000000 ab 94 27 be ea c3 a0 3d 48 ce 7a 3e 95 25 5d bd
       -0.16365306 0.07849868 0.24492753 -0.05399092
000010 c4 46 24 3e 47 81 e0 3d fb 89 84 3e 59 bd 91 3d
       0.1604262 0.10962158 0.2588652 0.07116193
000020 d4 12 48 3e 3a 9e f2 bd 4f de eb 3d 75 4b d0 bd
       0.19538432 -0.118465856 0.115170114 -0.10170642
000030 e1 e6 ca bd f1 9f 26 bd 14 ed d9 bd 0f d9 b2 bc
       -0.09907318 -0.040679876 -0.10640922 -0.021832017
000040 6a ef 3f be 67 3b df bb 91 09 fb 3d 3c a0 22 be
       -0.18743673 -0.0068125012 0.12257684 -0.15881437
000050 b6 bc 0d bd 43 b4 1e be 2b 0e a1 bb e8 12 54 3d
       -0.034603797 -0.15498452 -0.004915019 0.051775843
000060 3b 16 ab bd e9 da 10 3e 8c 86 db bd db 0e 35 be
       -0.083538495 0.14146008 -0.10719022 -0.17681448
000070 4f 68 4c be 95 c7 95 bd 6c d0 08 bb 6f 3a 0a bc
       -0.19961666 -0.07313458 -0.0020876182 -0.008436783
000080 62 6d 7b 3d f4 2b 29 be 5b 4f 2c bd 50 24 87 bd
       0.061383612 -0.16520673 -0.042067867 -0.06598723
000090 2e 46 ac bd 8f 26 ab 3d 9b 67 de bc c8 9c 64 be
       -0.08411823 0.08356964 -0.027149012 -0.22325432
0000a0 cf a0 e3 bb 67 96 42 3d 76 24 fd bd ce a2 b2 bc
       -0.00694666 0.047506716 -0.1236047 -0.021806147
0000b0 4e 0a 9d bd f2 05 59 3d b7 df 49 3e 0b 1f 45 bd
       -0.07667981 0.052984186 0.19714247 -0.048125308
0000c0 cc 47 4b 3e 73 ac 40 be c6 84 de 3d c8 bc f0 bd
       0.19851607 -0.18815784 0.10865168 -0.11754757
0000d0 08 96 42 3e aa d3 26 be e2 db 87 3e 47 25 98 bd
       0.19002545 -0.16291681 0.26534945 -0.07428985
0000e0 92 ce 6c 3e 76 86 2a 3e a7 0f 95 3d f4 5e 1f 3e
       0.23125675 0.16652855 0.07278376 0.15563565
0000f0 b3 6f 59 3e 31 33 21 be 67 93 1d 3d fe bb ba 3c
       0.21234016 -0.15742184 0.038470652 0.02279472
000100 d3 8c db 3d c3 31 86 3d 15 06 ac bd fd 9b a1 bc
       0.107202195 0.0655246 -0.083995976 -0.019727701
000110 5a ec a1 3d a7 b5 a7 3d bf 00 87 3d 08 76 ab 3d
       0.079064086 0.08188944 0.06591939 0.08372122
000120 eb 12 5f 3e af 30 27 3e 45 a2 3f 3d 2d ca 2c be
       0.2178456 0.16327165 0.04678561 -0.16873999
000130 a9 86 70 3d 1a 01 36 3e 48 6d 10 3e aa a8 1f 3e
       0.058722172 0.17773858 0.14104187 0.15591684
000140 92 66 d5 3d 2c 0e 72 be 04 f7 10 3e 7a 13 2d 3e
       0.10419954 -0.23638219 0.14156729 0.16901961
000150 d5 ef 02 3e 19 79 17 3e ef 9a a3 bd bd 50 5a bd
       0.12786801 0.14792289 -0.079885356 -0.053299654
000160 ae e5 b9 bd 5c 01 1e 3d 26 14 1e bd 7a 47 14 3e
       -0.09077011 0.038575515 -0.038593434 0.14480391
000170 b3 d1 3d be 66 bd 34 be ea e4 2c 3d f1 90 9a 3d
       -0.18537025 -0.17650375 0.042210497 0.07547177
000180 9e e0 92 3d 11 a7 0b be a8 4f 94 3d ad d5 fd bd
       0.071717486 -0.1363795 0.07241756 -0.12394271
000190 a9 0c 36 3b ec 97 b5 bd af a1 b0 bd 1d ec 9b 3d
       0.0027778542 -0.088668674 -0.08624589 0.076133944
0001a0 d6 cc 5a 3d c1 3f 51 be 39 b2 10 bd a1 db cf 3d
       0.053418003 -0.20434476 -0.035326216 0.10149313
0001b0 a4 0f 14 bd c5 cf 9f 3c 9f fc c2 bd 31 6c c8 bd
       -0.03614773 0.019508252 -0.0952084 -0.09786261
0001c0 87 6a c4 bc be c2 10 3c e5 5e 10 3e 6e c3 57 3e
       -0.023976577 0.008835493 0.140987 0.21070644
0001d0 e1 bd 1b be c1 16 a9 bd 1c ab 47 3e e7 8f 4a 3d
       -0.15209152 -0.08256293 0.19498867 0.049453642

fc5.weight f4 [84, 120]
000000 25 8c 8e bd c9 37 03 39 9b 39 cc 3c 5b 52 1a bd
       -0.06960324 0.00012513915 0.024929812 -0.037676197
000010 16 47 90 bd e8 38 0d 3e b8 c1 2a 3d 64 3a 25 bb
       -0.070448086 0.1379124 0.04168865 -0.0025211805
000020 30 eb 25 bd 52 23 82 3c 5a bc f5 bd 9d 38 f3 bc
       -0.040507495 0.015885983 -0.11998816 -0.029690081
000030 41 8a dc bd 7b c2 2e 3e 4e cf fe bd c6 71 54 3e
       -0.10768557 0.17066376 -0.12441884 0.20746526
000040 36 01 0e be cd 22 65 3d 35 b3 77 bd ac c6 09 3e
       -0.1386765 0.05594139 -0.06047364 0.13454694
000050 d8 af d3 3c ac 52 07 be e4 c4 2d 3e 10 86 d8 bb
       0.025840685 -0.1321513 0.16969639 -0.0066077784
000060 49 eb d5 bd 9d 3e be bc d3 5e 9c 3d 8f b6 0b be
       -0.10445268 -0.023223216 0.07635274 -0.1364386
000070 92 89 f7 3d 3e 3f b5 bd f1 c9 97 bc 98 98 a7 bc
       0.12086786 -0.08849953 -0.01852891 -0.020458505
000080 f8 98 2f be 9f dd 7e bb 6f d2 ee 3d aa 0f 6b 3d
       -0.17148197 -0.003888942 0.11661231 0.057387985
000090 3e 94 94 3a 1e 9d 1c be 11 18 22 3c f5 22 23 3e
       0.0011335684 -0.1529431 0.009893433 0.15931304
0000a0 28 a7 73 3d c4 7a 03 3e eb 00 ce bd a9 6b 81 bc
       0.059485584 0.128398 -0.10058769 -0.015798407
0000b0 7d 3a bc 3c 30 04 36 3c 8f 84 0b 3d 79 8a 9a bd
       0.022977108 0.011109397 0.034061965 -0.07545943
0000c0 76 19 b8 3d a3 1d 89 bd 7d 92 06 bd be bd c4 b9
       0.08989231 -0.06695106 -0.032854546 -0.00037525402
0000d0 f9 93 00 be 8f 88 e9 bd b4 c5 49 bc 30 92 c3 bd
       -0.12556447 -0.114029996 -0.0123152025 -0.095493674
0000e0 22 3e cb bd b0 8d 29 be d2 c7 d2 3d 7d 69 c9 3d
       -0.0992396 -0.16557956 0.10292019 0.098345734
0000f0 b6 4e f4 3d 3b 71 02 be 63 df 1c 3e 97 cf 03 3d
       0.119290754 -0.12738506 0.1531959 0.032180395
000100 c0 a5 76 3d 5e 49 10 bd b0 7e 34 3b fb b4 3c 3d
       0.060216665 -0.03522622 0.0027541332 0.046071034
000110 74 ba c8 3c e5 ca 65 be ee a3 52 bd 30 43 52 3e
       0.02450297 -0.2244068 -0.051425867 0.20533442
000120 75 91 2b 3e 60 16 8d 3c 79 30 bd 3c a1 09 1d 3c
       0.16754706 0.017222583 0.023094403 0.009584815
000130 d5 0e 4b bd c7 33 c7 3d 6d 94 fc bd 8f d3 d5 3d
       -0.04957469 0.097266726 -0.123329975 0.10440742
000140 21 38 99 3d 10 cc 38 bd db 0a 5a bd 9c 52 15 bd
       0.07481409 -0.045116484 -0.05323301 -0.036455736
000150 6b ae c9 3d cb ee 1f 3e 60 84 2e bd 74 42 36 bd
       0.09847721 0.15618436 -0.04260671 -0.04449697
000160 94 ab 4d ba 49 fe 2f 3e b2 c6 f4 bd f2 1d b1 3d
       -0.00078456965 0.17186846 -0.119519606 0.0864829
000170 b7 4b f2 3c 5e cf 41 be 87 8f 53 bd 25 5d 18 3e
       0.02957712 -0.1892676 -0.05165055 0.14879282
000180 bb 7c 1b 3e d8 cb 17 3d 42 04 c2 3d 7e 74 86 bd
       0.151843 0.037059635 0.09473468 -0.06565188
000190 bd 3e f5 bd d4 d4 80 3c d4 53 aa 3c a0 3c 17 bd
       -0.11974857 0.015726484 0.020791925 -0.03692305
0001a0 8d 66 65 be 20 5d 89 3d 7c bb e2 3d 61 8a 8d 3c
       -0.22402401 0.06707215 0.11070916 0.017277898
0001b0 b2 93 22 be 86 7e c5 bd 46 64 34 bd e0 83 6d 38
       -0.15876654 -0.09643273 -0.04404094 5.662802e-05
0001c0 ee 4a fc 3d 09 b2 12 bc b5 62 b0 3d ee eb e1 bd
       0.12318979 -0.00895358 0.08612577 -0.11031328
0001d0 a8 dd f2 3d a9 6f 06 be 8c 68 c9 3c 5c e9 66 bc
       0.11858684 -0.13128532 0.024585985 -0.014093723
0001e0 fa c3 d0 bd d1 ee 4c bd 9a a0 a8 bd 50 8d dc bd
       -0.101936296 -0.05003244 -0.08233757 -0.10769141
0001f0 c0 6d 35 3c d3 a9 9f bc e7 ee f9 bd a4 4e 68 bc
       0.01107353 -0.019490158 -0.1220377 -0.014178906
000200 e3 f9 0c 3c 23 d6 f1 3c d7 f7 27 be b5 3c c1 3d
       0.0086044995 0.029521054 -0.16403137 0.09435407
000210 f6 c6 43 bd ed b4 a2 3b 36 54 ad 3d 07 60 b1 bd
       -0.047797166 0.0049654157 0.084633276 -0.08660894
000220 c9 ef f1 3c b6 3c db 3b 37 81 3c be 4a 34 fd bd
       0.029533284 0.006690587 -0.18408667 -0.12363489
000230 ec fc ce 3d fc 32 e9 ba db 8c 06 3e d0 61 2a be
       0.10106835 -0.0017791684 0.1313967 -0.16638875
000240 ba 5b ab bd 97 25 b8 3d 61 df 36 3e d4 af 64 3d
       -0.08367105 0.08991545 0.1785865 0.055831745
000250 c8 3c ba bc d8 7a 12 be d8 1b cf 3c 51 f3 7b 3d
       -0.02273406 -0.14304674 0.025281832 0.06151134
000260 af 60 04 bd 30 fc bf bd 80 08 9d bb a5 dd c2 3d
       -0.032318767 -0.09374273 -0.004792273 0.095149316
000270 45 ab ba bc bb 22 77 bd fd 79 78 bd bd ae 8d bd
       -0.022786746 -0.060335856 -0.060663212 -0.06918094
000280 0d f0 d5 3d ca 15 51 3d 7a 27 9e 3d 38 05 1f bd
       0.10446177 0.05104617 0.07722373 -0.038823336
000290 17 ea 9a bc 1e c2 da bc c2 c3 b9 3c 3e fa 9a bc
       -0.01891045 -0.02670389 0.022676352 -0.018918153
0002a0 39 9c b3 bc 88 24 99 bd 8c ec 09 3e 5f d8 92 3d
       -0.021925079 -0.07477671 0.13469142 0.07170176
0002b0 1e ab 0d be ac e9 e6 3c 5f b4 47 3e 6b 31 26 3e
       -0.13834807 0.028187595 0.195024 0.16229789
0002c0 67 4e 0a be e9 56 b8 bd 97 30 cd 3d ae ed 18 be
       -0.1350647 -0.09000952 0.100190334 -0.14934418
0002d0 9b ef 66 bd 07 77 05 be 3a 2b 40 bd 69 e6 05 be
       -0.05638085 -0.13033687 -0.046916224 -0.13076176
0002e0 02 c1 04 bb 86 05 10 3e 17 d2 ee bd b9 5b 8f bd
       -0.0020256643 0.14064607 -0.11661165 -0.069999166
0002f0 db 1c bd bc a9 66 27 3e 60 7a 87 bc 34 b3 0f be
       -0.023085048 0.16347755 -0.016537845 -0.14033204
000300 f7 66 5e 3d a4 df 8f bb bd 19 14 be 46 92 a0 3d
       0.054297414 -0.0043906737 -0.14462943 0.078403994
000310 84 83 03 3e 52 87 83 bd 19 e1 0a be 2d 81 06 be
       0.12843138 -0.06422295 -0.1356243 -0.13135214
000320 45 7c 1d 3e 08 0d 07 3d 21 3f 9f 3d f1 7b 3e be
       0.15379436 0.032971412 0.07775713 -0.18601967
000330 88 18 6a 39 19 b1 e5 bc 22 94 53 be 09 31 66 bc
       0.00022325118 -0.028038548 -0.20661977 -0.014049777
000340 ab c9 3f 3e a4 fd a6 3d 7d 1e cd bc 24 83 03 3e
       0.18729274 0.08153847 -0.025038952 0.12842995
000350 7d f4 12 be cb 1e 65 bd 7a 28 26 be ef 3d 28 3e
       -0.14351077 -0.05593757 -0.16226378 0.16429876
000360 a3 2a f4 bc 9c 2b 2f be f4 02 50 3d 92 3f d1 3d
       -0.029805487 -0.1710648 0.050784066 0.10217203
000370 98 e1 07 be 26 f4 84 3a d4 5f ad bd fc 2f 39 3d
       -0.13269651 0.0010143563 -0.084655434 0.045211777
000380 23 71 92 3d c2 5b e4 3b 21 cc 3c 3d 82 2e 82 bc
       0.07150485 0.006968946 0.04609311 -0.015891317
000390 a4 5a 29 bd a4 46 9b bd 96 ca 24 bd 87 4d 33 be
       -0.041346207 -0.07581833 -0.040232264 -0.17510043
0003a0 da 64 54 bd 90 21 53 bd f5 3b 02 3e 77 e0 9c bd
       -0.051853992 -0.05154568 0.12718184 -0.07660001
0003b0 d2 27 25 be bc 18 92 3b 02 3b cb 3d 71 fe 35 3e
       -0.16128471 0.004458515 0.09923364 0.17772843
0003c0 22 16 42 bd 1f cf dc bd 5e 53 e5 bd 94 e8 e2 3d
       -0.04738439 -0.10781693 -0.11197542 0.11079517
0003d0 4d d5 ef 3d 10 22 36 3e 4b f7 47 3e b9 d5 ec 3d
       0.11710606 0.17786431 0.19527929 0.11564202
0003e0 42 b8 13 bd 4d 5d 08 3e 47 6e 84 bd 39 2d 2e be
       -0.036064394 0.13316841 -0.06466346 -0.17009439
0003f0 69 34 92 be c8 f6 0c 3e d8 06 dd bd b9 fa f6 bd
       -0.2855561 0.13766015 -0.10792321 -0.1205954

fc5.bias f4 [84]
000000 dc b4 e9 3d 36 f9 77 bd 20 ef 0e 3e 0f bf 13 3c
       0.11411449 -0.0605404 0.13958406 0.00901772
000010 17 af 1a be 48 57 a7 bd 20 26 0a be 21 80 eb bd
       -0.15105854 -0.081709445 -0.13491106 -0.11499048
000020 b7 58 0d be 72 60 60 3d 19 ee 16 be bb fc 2d bd
       -0.13803373 0.054779477 -0.14739265 -0.04247735
000030 d9 58 73 3d 4c ed 00 3e 58 3c e5 bc b0 1b 3b 3d
       0.059410904 0.12590522 -0.027982876 0.0456807
000040 0e 30 2b bd 92 d3 59 3e c7 c3 2c 3e 03 7c c7 3c
       -0.041793875 0.21272114 0.16871558 0.024351126
000050 ac ce 0b bb b9 7c 3f 3d a8 67 7f be 86 f5 2d 3d
       -0.0021332903 0.046749804 -0.24941885 0.042470478
000060 ef a5 9c bc 19 0d 4e bd bb a8 31 3d 8a a2 50 bc
       -0.019122092 -0.05030546 0.043373805 -0.012734065
000070 a6 77 d2 bd 5a d8 30 be e6 d2 16 be cb 44 dc bd
       -0.102767274 -0.17270032 -0.14728889 -0.10755309
000080 ed 7a a7 3c 24 18 1c 3e de 19 15 3d b2 2c 3b 3e
       0.020444358 0.15243584 0.036401622 0.18278769
000090 e7 bc 1a 3e 62 97 86 bd 1b 3c 84 bc f1 2d 21 3e
       0.15111123 -0.06571843 -0.016141942 0.15740182
0000a0 38 5f 34 3d 75 4c 22 3d 51 a5 a4 bd e7 9f 53 bb
       0.04403612 0.039623696 -0.08039344 -0.0032291354
0000b0 6d 3c db 3c d3 ff 83 bd 46 0d 69 be 96 28 2a bd
       0.026762212 -0.06445279 -0.2275897 -0.041542612
0000c0 f9 e6 02 bd ba 17 85 3e 37 d1 68 bd 04 9f 9b 3d
       -0.031958554 0.25994664 -0.056840148 0.07598689
0000d0 1f eb 15 bd 78 75 63 bd e0 d2 0a 3b 49 d0 36 bd
       -0.036601182 -0.05553195 0.002118282 -0.04463223
0000e0 a5 dd de 3d 90 b0 a4 bd e4 a6 72 bd 80 8a 06 be
       0.10882119 -0.08041489 -0.05924119 -0.13138771
0000f0 b9 84 46 be 4f 98 06 3c 13 53 27 bb 52 57 2b be
       -0.19386567 0.008215024 -0.0025531694 -0.16732529
000100 f4 f3 7b be e5 89 70 bc 63 1b 1c be e8 47 0d be
       -0.2460478 -0.014681314 -0.15244822 -0.13796961
000110 86 de 89 bd 6c e4 0e 3d 8a d0 d7 3d 68 90 98 bd
       -0.06731896 0.03488581 0.105378225 -0.07449418
000120 be fe 1b be e4 d2 fc 3d 92 f7 51 3e db d2 28 3e
       -0.15233895 0.12344912 0.20504597 0.16486685
000130 2f 1c f1 3d e3 cd 28 be 16 83 88 3d 04 1f 71 3a
       0.11772954 -0.1648479 0.06665628 0.0009198042
000140 69 90 82 bd f6 e0 3d be 69 70 f9 bd 86 4b ae 3d
       -0.063752 -0.18542847 -0.12179644 0.08510499

fc6.weight f4 [10, 84]
000000 81 e8 4c bd f7 27 ca bd 07 0c 2e be 8f e3 da 3d
       -0.05002642 -0.09870904 -0.16996776 0.106879346
000010 5a f9 36 3e a2 63 55 3e ee fd 90 bc ca fb a1 bc
       0.17868558 0.20838788 -0.017699208 -0.019773383
000020 ae c2 19 3e 94 91 57 bd 94 a7 fb 3d f6 30 4b bd
       0.1501567 -0.05262907 0.12287822 -0.04960724
000030 a4 8c 49 be b2 b3 cb 3d b1 71 1f bd 4f 1e ab 3d
       -0.19682556 0.099463835 -0.038926784 0.0835539
000040 f4 38 8a bd ed d3 02 be e2 4e 3d be cd 12 21 3e
       -0.06749144 -0.12776156 -0.18487123 0.15729828
000050 86 74 24 be 66 75 9d bc b5 3c 5b 3e fc 54 c5 bd
       -0.16060075 -0.019221019 0.21409877 -0.0963535
000060 08 61 5e be 06 58 26 3e ee 8d 23 bc 7a b7 1e 3e
       -0.21716702 0.16244516 -0.009982569 0.15499678
000070 49 04 5b bc 3a 1a be 3d f6 f9 1f 3e 73 db a5 3d
       -0.013367721 0.09282346 0.15622696 0.08098497
000080 29 fe 16 3e a1 55 7e 3b 08 50 36 be 1d 6e 5a be
       0.14745392 0.0038808363 -0.17803967 -0.21331067
000090 b3 cf ce 3a b8 2a 4b 3e 41 7d 2d 3e df 08 52 be
       0.0015778452 0.19840515 0.16942312 -0.20511197
0000a0 40 10 30 bd 03 70 32 3e ea 99 f8 bd ef 3f 0e 3d
       -0.042984247 0.17425542 -0.12138732 0.03472894
0000b0 42 2f e0 bd aa 36 9f bd ad 45 95 3e ba fb 0c 3e
       -0.10946514 -0.07774098 0.2915472 0.13767901
0000c0 d7 a6 14 3d 43 45 17 be 24 b2 27 bc 7a 63 5a 3d
       0.036291923 -0.14772515 -0.010235343 0.053317524
0000d0 4d 3b b9 bd 8c d8 07 be f1 79 38 3e f7 0e d9 bd
       -0.09044514 -0.132662 0.18015267 -0.105985574
0000e0 71 c2 aa bc 75 e9 af 3c f5 ae 8a bc dc 03 15 3e
       -0.02084467 0.021473626 -0.01692913 0.14552253
0000f0 4e 97 56 bc cc 5d dd 3d d3 13 1b 3d 9d 7f a9 bd
       -0.013097597 0.10808906 0.037860703 -0.082762934
000100 56 b3 42 3e 3b da 0c be e1 9a 8f 3d 31 6c 19 3e
       0.19013724 -0.13755123 0.07011963 0.14982678
000110 00 b8 48 3e b4 b1 88 bd 90 7e b0 bd c6 5f 74 bd
       0.1960144 -0.06674519 -0.0861789 -0.05966165
000120 96 1a 6f 3c d6 64 c3 3d ee c4 28 3d 70 ea 12 3e
       0.014593741 0.09540717 0.04120343 0.14347243
000130 18 83 cb 3d 32 8f 53 bd dc ba f5 bd 94 d2 a3 bb
       0.099371135 -0.051650234 -0.11998531 -0.004999468
000140 4f 1d 10 be d5 dd 17 3e b8 5f 4b 3d 00 ad cc bc
       -0.1407368 0.14830716 0.04965183 -0.024984837
000150 e5 f1 cb 3d ec 12 ae 3d 43 1a 16 3e c6 64 48 3e
       0.09958247 0.08499703 0.14658456 0.19569692
000160 27 27 77 3c 31 3b 9b bd 73 ae 7c be c9 f8 79 bd
       0.015085018 -0.07579649 -0.24675922 -0.061028276
000170 b5 71 26 be 1c e6 1b bd a8 43 8d 3e e1 1b 6d 3e
       -0.16254313 -0.038061246 0.2759068 0.23155166
000180 0d f0 44 3e 8c 29 62 3e 90 81 f7 bd cc ec 35 3c
       0.19232197 0.22086161 -0.12085259 0.01110382
000190 a5 eb da 3d e4 f5 48 3e d9 2f 0d 3d 4d 6e 87 be
       0.10689477 0.1962505 0.03446946 -0.2645134
0001a0 34 df 9f bd d0 45 cf 3c 1a d0 21 be de 2f 15 be
       -0.078062445 0.025301844 -0.1580204 -0.14569041
0001b0 fd 01 a4 3d 34 0d 29 3e 66 dc 8a bd 6f 40 91 be
       0.08008192 0.16508943 -0.06780319 -0.2836947
0001c0 92 e2 7a 3c 47 fa cc 3d 5f f0 6b be 6c 7c 8c 3d
       0.015312808 0.10008674 -0.23040913 0.06859669
0001d0 dc 3f 4c 3e 2e 2f 0e be c3 eb a8 3d da fe 2c 3c
       0.19946235 -0.13885185 0.08248093 0.010558808
0001e0 fd 18 9d 3d d1 44 06 be 05 76 62 3e b2 7c ee 3d
       0.07670782 -0.13112189 0.22115333 0.116448775
0001f0 eb e3 b4 bd 5e 9b 19 3d 32 db 9a 3d 5f 7e 83 be
       -0.088325344 0.037501685 0.075613394 -0.2568235
000200 1f 9b 02 3e 14 71 59 bd be 6d 86 be 7d c5 3b be
       0.12754487 -0.053086355 -0.26255602 -0.18337055
000210 d8 4b 3b 3c 83 98 8c bd 51 a0 3f bc 64 04 48 3d
       0.011431657 -0.06865027 -0.011695937 0.048832312
000220 6a d4 89 3d 5a 74 10 be 54 dd b5 bd 4c d1 65 bd
       0.06729968 -0.14106885 -0.088801056 -0.056107804
000230 0d af f4 bc 4d b0 f0 bb 9c f6 97 be 8e b7 d6 3d
       -0.029868627 -0.0073452354 -0.29680336 0.10484229
000240 37 0a 5a 3c 1a 0a bf 3d e6 3b dd 3d 10 6d 08 3e
       0.0133080995 0.093280986 0.1080244 0.13322854
000250 71 ad 2a 3d 6c 46 a9 be f0 79 d8 3d d7 35 25 3e
       0.041669313 -0.3306154 0.10570133 0.1613382
000260 ee 8f 0c 3e 7c cd b5 bd c6 e5 98 bd 9c 51 5b 3e
       0.1372678 -0.08877084 -0.07465701 0.2141785
000270 d5 9a 11 be 55 ef 26 be 30 d7 2d bd 59 88 03 3d
       -0.1421922 -0.16302235 -0.042441547 0.032112453
000280 2e 12 4b bd 9b 95 81 be c8 c1 a6 bc d3 95 91 be
       -0.049577884 -0.25309452 -0.020356074 -0.2843462
000290 13 a8 98 3c b9 5c 58 be b5 2d cf 3c 98 99 24 3e
       0.018634832 -0.21129121 0.02529035 0.16074216
0002a0 20 4b ac bc 38 fb ab bd c3 e7 67 be 95 be b9 3d
       -0.021031916 -0.083975255 -0.22647004 0.09069554
0002b0 fc 79 11 be be 97 23 be 33 af 03 be 91 76 40 be
       -0.1420669 -0.15975854 -0.12859802 -0.1879523
0002c0 31 87 16 3e e5 64 31 bb 24 4f 3f 3e c0 d6 1c 3e
       0.14700009 -0.0027068194 0.18682534 0.15316296
0002d0 1e 0f c2 3d 2c 0c 37 3e 91 62 db bd d1 a4 34 bd
       0.094755396 0.17875737 -0.107121594 -0.044102494
0002e0 73 df 89 3c b4 42 fe 3d 51 b2 1d 3c 55 a5 21 bd
       0.016830182 0.12415066 0.0096250335 -0.039464314
0002f0 df d4 33 3e e4 f4 f6 bd 98 b2 ab bd db ef 0d be
       0.17561673 -0.12058428 -0.083836734 -0.13861029
000300 ba ab 40 bd e6 65 17 3e 38 1c f1 3d 01 c3 6b bc
       -0.04703877 0.14784965 0.117729604 -0.014389754
000310 75 02 2e 3d b0 e3 91 bd 5b 25 e4 bd 67 30 99 3d
       0.042482812 -0.07123506 -0.111399375 0.07479935
000320 a0 95 62 3e fe b5 83 3e 29 05 1f 3e 91 fb c1 bd
       0.2212739 0.25724787 0.15529312 -0.094718106
000330 7b b3 3b 3e dd 8b 02 be 73 91 88 bd c5 3e 44 3d
       0.18330185 -0.12748666 -0.06668367 0.047911424
000340 79 d4 94 3c 09 de e9 3d a8 65 a3 bc b4 25 26 be
       0.018167721 0.11419303 -0.019945934 -0.1622532
000350 51 e6 18 3e 23 3d 88 bd cb dd 5b 3d c1 b9 1f 3e
       0.14931609 -0.06652286 0.053678315 0.15598203
000360 e2 14 96 3c 65 14 b8 3d 3d a6 e7 3a 38 16 38 bd
       0.018320505 0.08988265 0.0017673444 -0.044943064
000370 e9 91 1d bd 73 e7 f9 bd 5b 4f 22 3e 5c 31 66 bd
       -0.03846923 -0.122023486 0.15850584 -0.056199417
000380 17 25 1a bc 1c 8d 2d be 34 e0 f9 bc 66 5d c2 bd
       -0.009408257 -0.1694836 -0.030502416 -0.094904706
000390 e8 13 24 be ef e1 e2 3d 81 2e 60 3d 82 e4 52 be
       -0.16023219 0.1107825 0.05473185 -0.20594981
0003a0 d7 a4 49 3d c9 a5 9d bc 21 3d 11 be e1 4f 23 bc
       0.04922947 -0.019244092 -0.14183475 -0.009967775
0003b0 ef ee 07 3e 06 9f 81 3d 85 20 a2 3d b7 7d 8f bd
       0.1327474 0.063291594 0.07916359 -0.070064
0003c0 5b 42 a0 bd cb ff 3a 3e 38 ec 43 3d 57 4a 82 bc
       -0.07825156 0.1826164 0.047832698 -0.015904589
0003d0 67 ee 7a 3d 11 22 4f be ce 41 84 3d 4f 84 6d 3e
       0.061262514 -0.20227839 0.06457864 0.23195003
0003e0 8c 55 0b 3d ec 7d c4 bd bc 78 94 bd 62 33 e5 bd
       0.03401713 -0.0959433 -0.07249591 -0.11191441
0003f0 06 3d 2c bc 70 4c 21 be 80 d7 48 3d 1c 37 9c 3d
       -0.010512596 -0.15751815 0.04903364 0.07627699

fc6.bias f4 [10]
000000 30 99 85 be 2f 7d 1e 3d 02 27 bf 3c 51 4f 1d bd
       -0.26093435 0.038693603 0.02333403 -0.03840572
000010 d9 55 f9 bd e5 7d 28 3e 59 7e f6 bd 88 6d b3 3b
       -0.12174577 0.16454275 -0.12035818 0.0054757036
000020 a8 78 d1 3d 3f 07 87 bd
       0.102280915 -0.06593179
