model_history/model_lenet5_expLR_ver2.pt (torch, 180807 bytes, 10 tensors)

layer1.0.weight f4 [6, 1, 5, 5]
000000 7e cf 81 3e 20 eb 0f be a3 b8 da bd 6c 5b 2a 3e
       0.25353616 -0.14054537 -0.10679748 0.16636437
000010 98 fb 82 bc 22 62 55 3d 91 a3 ef be d2 f6 f0 be
       -0.01598911 0.05209554 -0.4680448 -0.4706331
000020 93 8e db be 27 d6 6f bd 37 58 41 3e 8b 51 ac be
       -0.42882213 -0.05855384 0.18881308 -0.33655962
000030 6b b6 b7 be 12 3f a1 be eb bf 76 be ce d9 b9 3e
       -0.3588136 -0.3149343 -0.24096648 0.36298984
000040 b7 ed 51 3e f5 14 04 be a4 68 1f bd 26 3f c5 3d
       0.20500837 -0.1289862 -0.038918152 0.09631185
000050 ff c1 e5 3e d1 7b 97 3e 07 28 f2 3e e2 22 db 3e
       0.4487457 0.29586652 0.47296163 0.4280005
000060 c0 d0 fa 3d 4f 2e 0b bd 59 73 78 be c3 7b 96 be
       0.12246847 -0.03397971 -0.24262752 -0.29391298
000070 fc 2b 37 bf db 55 57 bf ad f5 1a be 16 4c 8a be
       -0.7155149 -0.8411538 -0.1513278 -0.27011174
000080 43 7f 5a be 58 9e 2d bf 84 e9 48 bf 3f 2d c6 3d
       -0.21337609 -0.6781974 -0.78481317 0.09676599
000090 86 35 43 3e 57 cc 17 3e 39 6d 40 be 19 aa ea be
       0.19063386 0.14824043 -0.18791665 -0.458329
0000a0 eb b8 b7 3e b9 56 1d 3f 2d 1b 34 3f cb d1 20 3f
       0.3588327 0.61460453 0.70353967 0.6282012
0000b0 02 bf 6b bd d0 e9 5b 3e 1f bc 28 3f fa 1c 90 3f
       -0.057555206 0.21475911 0.6591205 1.1258843
0000c0 7a 60 88 3f 11 f7 b6 3e 8d 9d b9 3f 72 dc a9 3f
       1.0654442 0.35735372 1.4501206 1.32704
0000d0 d1 12 1a 3f 7b 0f 00 bf 1d bf 08 bf 66 18 5f 3f
       0.6018496 -0.5002362 -0.53416616 0.87146604
0000e0 09 27 2f 3f 33 07 b5 be ee 59 46 bf 1c f9 ed be
       0.6841894 -0.35357055 -0.7748097 -0.46479118
0000f0 fb c1 05 3f 6f 9a d6 be f7 52 99 bf 25 7f 70 bf
       0.52249116 -0.41914698 -1.1978444 -0.9394401
000100 2f 5e 57 bc 81 99 be 3d 3f 1b 59 bf 24 be 9f bf
       -0.013145014 0.09306622 -0.848072 -1.2479901
000110 23 b0 54 bf e3 95 55 3f 5a ba d1 bc 10 c5 7f bf
       -0.83081263 0.83431834 -0.025601555 -0.9991007
000120 7b fd 1e bf 48 1c 1a 3f 15 19 bd 3f 9d 51 22 bf
       -0.6210553 0.60199404 1.477328 -0.6340578
000130 ab 26 c8 be ad 5e 17 bf 62 45 6a be fa 8f 00 3e
       -0.39092 -0.5912884 -0.2287803 0.12554923
000140 d1 68 f7 be 51 53 25 bf 78 a4 c4 be 7a 56 d6 be
       -0.48322156 -0.64580256 -0.3840673 -0.4186285
000150 e3 e1 9b be 6b d0 b5 bc 7d fd 96 3c 4f 0c 87 be
       -0.30445775 -0.022194108 0.01843142 -0.26376578
000160 e1 dd ad be 9b e7 b2 bd 8f dd 91 3e 7d c2 37 3f
       -0.33958343 -0.087355815 0.28489348 0.7178114
000170 e5 19 ab 3e 4d ee 5c 3e bc 22 df 3c 7e 60 da 3e
       0.33418193 0.2157528 0.027238242 0.42651743
000180 d8 83 5a 3f c2 bc 71 3f 87 04 18 3f 5f 67 9e 3d
       0.8535743 0.94428647 0.5938191 0.0773456
000190 cf 57 32 bf 73 3e 96 be ab f3 1c 3d 50 ae 47 3f
       -0.69665235 -0.2934452 0.038318317 0.78000355
0001a0 71 2c bb 3e 03 53 91 be 38 92 21 bf 0b 39 62 3e
       0.36557344 -0.28383645 -0.6311374 0.22092073
0001b0 65 a5 50 3f 15 d4 fa 3e e6 3a f0 be d5 d8 0f bf
       0.8150237 0.4898993 -0.46919936 -0.56190234
0001c0 22 89 03 3e 69 3a 4a 3f 6e cf 0a 3f 6e 84 2f be
       0.12845281 0.78995377 0.5422276 -0.17140362
0001d0 cb 1f 20 bf c7 2f 1b be e6 bf 43 3f e3 e2 6d 3e
       -0.6254851 -0.15154944 0.7646469 0.23231082
0001e0 95 dc 88 3c 78 fb 13 bf 0c 85 c2 be 48 31 94 3e
       0.016706744 -0.57805586 -0.37992132 0.2894385
0001f0 f0 36 19 3f ba 89 05 3e 35 2a b0 3e 5e 67 7f 3e
       0.5984945 0.1304082 0.344072 0.24941775
000200 bd 2e 47 3e af d5 bb 3e f1 5f 83 3d c5 65 6f 3e
       0.19451423 0.36686465 0.06414784 0.23378666
000210 aa ae c6 3e 99 86 13 3e 02 db d9 3e e2 b3 84 be
       0.38805133 0.14406814 0.42549902 -0.2591849
000220 a3 a0 57 3e 6e 83 5c bd 51 a1 2d 3e d8 ff 21 3e
       0.21057372 -0.05383628 0.16956069 0.15820253
000230 1f 6d 74 be 43 73 cc bd f1 0c 44 bd 10 f2 56 be
       -0.23869751 -0.09982922 -0.047863904 -0.20990777
000240 8a c4 ad 3c 5b 60 40 be 1d 33 38 be 96 3c 6e be
       0.021211881 -0.18786757 -0.17988248 -0.23265299
000250 87 03 50 be df 01 e8 3d
       -0.20313846 0.11328482

layer1.0.bias f4 [6]
000000 06 2a c2 be aa ce bd 3e 09 3a 80 be 44 ff b5 3d
       -0.37922686 0.37071735 -0.25044277 0.08886579
000010 32 1c b9 3e 0c 23 df 3c
       0.36154324 0.027238391

layer2.0.weight f4 [16, 6, 5, 5]
000000 ff a9 59 3d 6c e9 1b be 05 cb 62 bd 8d 44 56 3d
       0.053140637 -0.15225762 -0.055369396 0.05231147
000010 c0 ff 0a bf c6 9c 7d 3e 64 82 df 3d 32 13 73 bd
       -0.54296494 0.24766836 0.10913542 -0.059344478
000020 cf 5d 65 3c b6 a2 70 be 90 29 8b 3e 55 f7 68 3e
       0.0139994165 -0.2349957 0.27180147 0.227506
000030 4e 16 22 3e 02 a0 46 be bb 3f 82 be cc 50 d7 3e
       0.15828821 -0.19396976 -0.25439247 0.4205383
000040 5a d3 b4 3d 91 ad ac be f7 0f d5 be e7 9a e1 ba
       0.088293746 -0.3372617 -0.41613743 -0.0017212302
000050 0b 98 83 3e fc 12 9b bd 83 3a d2 be 42 97 27 be
       0.25701937 -0.0757198 -0.41060266 -0.16366294
000060 a6 8a 85 be f1 92 aa 3d e2 52 75 3e 92 55 0a 3e
       -0.26082343 0.08328808 0.23957399 0.13509205
000070 46 03 97 bd 5c 2c 85 3d c9 7c 8c 3e b8 55 6e 3e
       -0.07373671 0.065026015 0.27438954 0.23274887
000080 87 62 8f 3e 93 23 42 3e 40 8d 9a bd 62 a1 a2 3e
       0.28004858 0.18958883 -0.075464725 0.3176375
000090 78 33 85 3e 44 e5 90 3e 7a c4 95 3d b4 74 ae bd
       0.2601583 0.28299916 0.073128656 -0.08518353
0000a0 55 c6 92 3e ab 72 91 bd 5d 00 c2 be 5d 9b e9 be
       0.2866694 -0.07101949 -0.37890902 -0.45626345
0000b0 6f a7 0f be 87 57 8e 3d 12 c8 c1 be 81 1e 98 be
       -0.14028715 0.06950288 -0.37847954 -0.29710773
0000c0 56 7f 13 3e dc 9f 75 3d 5f f1 e0 bd dc aa 71 3e
       0.14404044 0.059966907 -0.10983538 0.23600334
0000d0 81 c4 3c 3e e9 f3 eb 3d 1a 60 a8 bd b8 0a 1d bb
       0.18434335 0.115211315 -0.08221455 -0.0023962688
0000e0 8b a2 5d 3e f7 e1 b1 3e e4 6a ad 3e fb b3 36 3d
       0.21644036 0.3474271 0.33870614 0.044605237
0000f0 36 fc 26 be dd 47 1d 3e 14 46 d5 3e c0 e1 52 3e
       -0.16307148 0.15359445 0.41655028 0.2059393
000100 95 b8 61 3e 62 a9 ee bd e6 ad bf bc df 60 21 3d
       0.22043069 -0.11653401 -0.02339835 0.039399024
000110 d1 68 9e 3e 48 58 e2 3d 88 65 97 be 70 55 53 be
       0.30939344 0.110519946 -0.2956965 -0.2063806
000120 18 94 49 3d 60 3e 0d 3e 66 8e a7 be b0 09 1d 3e
       0.0492135 0.13793325 -0.3272583 0.15335727
000130 eb 63 de bd 0a 80 3f 3e 30 e8 8e 3e dd 30 60 3e
       -0.108589016 0.18701187 0.2791152 0.2189364
000140 bb 12 56 3c 9e 3f cf bd 6b 0d 1d be 1f 57 9b bb
       0.013065989 -0.10119556 -0.1533715 -0.0047406103
000150 0f 5d b0 bd 44 30 40 3d 2e ae 12 be eb 40 fa 3c
       -0.086114995 0.04692103 -0.14324257 0.030548533
000160 9d 34 4e be 50 fc e3 be e7 09 13 3d 7a 0b 75 be
       -0.20137258 -0.44528437 0.035898115 -0.23930159
000170 b0 a3 c3 be 31 3f 26 bf e9 ea 25 bd ae e0 7e 3d
       -0.3821082 -0.6494017 -0.04050723 0.06222599
000180 2d 40 be be bd 84 24 bf 28 d0 33 be 5f 12 ea 3e
       -0.37158337 -0.6426504 -0.17559874 0.4571714
000190 92 48 39 3e 2f 37 93 3e f7 4c 85 3e 97 ab b1 3e
       0.1809409 0.2875304 0.26035282 0.34701225
0001a0 b2 93 b5 3d d3 1e ad 3c 26 62 07 bd e4 38 72 3d
       0.08866061 0.021132862 -0.033052586 0.059136286
0001b0 6a 32 49 3e fa 4a 92 3c 3e ea c7 3d 06 6e 02 3e
       0.19648138 0.017858017 0.09761475 0.12737283
0001c0 3c ec ad 3c 96 2e 93 3d a1 c7 cd bc b0 af 27 3e
       0.02123081 0.0718662 -0.025119605 0.16375613
0001d0 70 d2 c3 3d b4 8a 8a be b7 76 22 be a8 54 03 bd
       0.09561622 -0.27058947 -0.15865599 -0.032063156
0001e0 4e 66 de 3d a7 6e dc bd ae 0c f6 be 2f 53 86 be
       0.10859357 -0.10763293 -0.4805655 -0.2623534
0001f0 d8 47 15 3c 8c 7c 7e bc cd 09 42 bc ea 6f 96 bd
       0.009111367 -0.015532624 -0.011843157 -0.07345565
000200 af f4 30 3d 61 3b 37 3e 3d ae 4c bd 5d ef 14 3d
       0.0432021 0.17893745 -0.049970854 0.036361087
000210 54 92 4e bc d5 74 14 bd 19 31 cf 3d fb 61 e9 bc
       -0.0126081295 -0.036244232 0.101167865 -0.028489104
000220 f9 b1 dd bd ce 0d c6 bd 21 f9 d7 bd 17 6c 21 3d
       -0.10824961 -0.09670602 -0.105455644 0.039409723
000230 e4 89 03 be 6c 44 88 bd c5 3e a0 3d ef 82 ce 3d
       -0.1284557 -0.066536754 0.07824472 0.10083567
000240 ef 9b 15 3c e1 b2 c6 bd d3 57 d4 3d fd 1b 07 3e
       0.009131416 -0.09702087 0.10368314 0.1319427
000250 80 58 08 bc 9e a2 50 bd 11 1e 5c be bd 1c 8f 39
       -0.008321881 -0.050936334 -0.21495844 0.00027296497
000260 02 e6 8a 3e d8 ed c6 3e a0 88 66 3e 64 91 34 bf
       0.27128607 0.38853335 0.22513056 -0.7053435
000270 99 2f a4 be 03 4d 95 be 9b 9e 0b bd ba 45 15 be
       -0.32067564 -0.29160318 -0.034086805 -0.1457738
000280 6a 9e ae 3e 56 4c ad 3e 6e 0c 75 3e c6 b8 44 3d
       0.34105235 0.33847302 0.23930523 0.048027776
000290 1d ac 05 bd 20 cf 1d be d3 ef 83 3d d3 d8 37 3e
       -0.032634843 -0.15411043 0.06442227 0.17953806
0002a0 69 21 71 3e e0 48 21 3d a6 c4 ab 3e 19 d2 62 3c
       0.23547901 0.03937614 0.33548468 0.0138440365
0002b0 a0 51 a9 3d 67 5e 34 3e 6b 93 ff bd 96 95 52 3e
       0.08267522 0.17614137 -0.124792896 0.20564875
0002c0 fc bc ab 3e 0f 14 7a 3e 1c d9 8e 3e ec 10 87 3e
       0.3354262 0.24421714 0.27900016 0.26380098
0002d0 6e d7 11 be 72 bb 9f 3d c9 5c d7 bd 8c bd 11 be
       -0.14242336 0.07799424 -0.10515744 -0.14232463
0002e0 4b 92 b7 bd 13 66 e7 3d f3 72 ae 3d b5 5c 30 bd
       -0.0896345 0.11298766 0.085180186 -0.043057162
0002f0 13 22 47 be bb e1 93 bd 11 83 d3 3d 0b 19 63 3e
       -0.19446592 -0.07220789 0.10327733 0.22177522
000300 2a 13 f3 3d 1f 54 4b be 5a a0 64 be 2f 58 3c be
       0.1186889 -0.19856308 -0.22326794 -0.18393014
000310 57 bc a7 be 2e df 3b be 70 84 8d be a5 60 29 bf
       -0.3276088 -0.18346855 -0.27640104 -0.6616309
000320 0c bf 27 bd 1c 32 06 3c 1b c3 03 bd 4d ea eb bd
       -0.04095368 0.008190658 -0.03216849 -0.11519299
000330 ae 1d 6a be 79 94 8f 3e ea e3 19 3e 65 9a c1 bc
       -0.22862884 0.28042963 0.15028349 -0.023633191
000340 07 9a 5c bd c7 0e 38 be 78 a9 35 bd 35 0e d8 3d
       -0.05385783 -0.17974387 -0.04435107 0.10549585
000350 fa 9e e3 3d f5 83 d2 3d 89 41 2b 3d 5f 05 ac be
       0.11114307 0.10279075 0.041810546 -0.33597848
000360 91 e5 71 be 80 2b 3b bd 82 24 26 3e 60 d4 8e 3d
       -0.23622729 -0.04569578 0.16224864 0.06974101
000370 d5 69 44 be 8d 53 cd bd 99 33 a6 3d e5 0f fe 3c
       -0.19180997 -0.10025702 0.0811531 0.031013438
000380 fa 2f c6 bb c8 8f 83 3e db c8 13 3e 1d db e2 3d
       -0.0060481997 0.25695634 0.14432089 0.11076949
000390 2c 18 27 3d c1 4e e0 3d a8 5d 85 bf 39 74 2a bf
       0.040794536 0.10952521 -1.0419207 -0.6658359
0003a0 02 bf 05 bf 2b da c2 be 65 ef c3 bd af bf 46 3e
       -0.5224458 -0.38057074 -0.09567145 0.19409059
0003b0 d4 1e be 3d 81 8f 35 3d 9b 39 19 be 73 4f 8e 3c
       0.09283224 0.04432631 -0.14963381 0.017371869
0003c0 fc 14 3a be fb 9d 9a 3e d7 24 b8 3e c7 d0 49 3e
       -0.18172067 0.30198655 0.35965607 0.19708548
0003d0 17 d4 4a 3d 06 16 f2 be 00 a0 a9 be bd ba 2c be
       0.04951867 -0.47282428 -0.33129883 -0.1686811
0003e0 dc e9 60 3c e9 9f 5f 3c 35 7b 2b 3d 6c bd b7 3d
       0.013727631 0.013648965 0.041865546 0.08971676
0003f0 4a 8d 18 be 6d 51 96 be 25 83 5b be be 46 36 bd
       -0.14897648 -0.29358998 -0.21436746 -0.04450106

layer2.0.bias f4 [16]
000000 70 8d 14 3d 9b 5e df 3d 08 1a 07 3e ef 11 fe 3c
       0.036267698 0.109067164 0.13193524 0.03101441
000010 3b c9 12 3e a3 73 3c 3d 40 e4 ef bb 97 95 53 3e
       0.14334576 0.046008717 -0.0073209107 0.20662533
000020 1a 41 94 3e 77 bc 52 bd 80 24 b0 be aa fd 04 bf
       0.2895592 -0.051449265 -0.34402847 -0.5194956
000030 cf 52 43 bd d6 b9 6c 3d c2 ad 87 3e 01 c7 c3 3d
       -0.047686394 0.057794414 0.26499754 0.09559441

fc4.weight f4 [120, 256]
000000 69 92 dc bc 36 7c aa 3d a3 a9 41 3d f8 f2 e1 bc
       -0.026925283 0.083244726 0.04728092 -0.027581677
000010 57 2f fa bd 74 93 bf bc 7d 6e 41 3e 5e a9 ee 3c
       -0.122160606 -0.02338574 0.18889804 0.029133495
000020 21 8e a6 bd dd bc 1f 3e 71 8c 5e bd 40 96 52 3e
       -0.08132578 0.1559939 -0.054333154 0.20565128
000030 32 cf ab 3d 15 77 95 bd 7c 80 33 be 11 fa 94 3d
       0.08389129 -0.07298104 -0.17529482 0.07274259
000040 7f 6d 4a bd 10 6a d4 3d 25 14 3c 3e af 70 28 3e
       -0.04942083 0.10371792 0.1836706 0.16449235
000050 8b 14 4f bd d9 3d 83 3e 0a b4 05 bd 47 5a 11 3e
       -0.0505567 0.25633124 -0.0326424 0.14194594
000060 08 f4 0e 3d 8a 65 b5 ba 17 1e 08 be 6f bd a8 bd
       0.034900695 -0.0013839465 -0.13292728 -0.082392566
000070 fa 8d 26 bc 51 9f 63 3d 17 eb e2 3d d9 ea 62 be
       -0.010165686 0.055571858 0.11079996 -0.221599
000080 4a 39 8a bd c9 ee 65 bd 2d aa 52 3e 44 19 1c bc
       -0.06749208 -0.056135926 0.2057273 -0.009527508
000090 b6 a4 06 3c 0f a9 96 be a2 18 9e bd 86 51 79 3d
       0.008217981 -0.29425856 -0.07719542 0.060868762
0000a0 c7 14 3f 3e fe 82 97 bd be 07 f6 3c 55 4d 9f ba
       0.1866027 -0.07398032 0.030032989 -0.0012153784
0000b0 08 94 5d 3e 68 06 16 3e a1 13 ad be aa 03 58 be
       0.216385 0.14650881 -0.33804038 -0.21095148
0000c0 92 ee e0 bd 02 a1 ee bc 6b dc 9c be f7 9f 04 be
       -0.10983004 -0.029129509 -0.30636916 -0.12951647
0000d0 2a 42 0e bd 51 8d 9b bc ca fc 36 3e 1f 5f 9a 3c
       -0.034731068 -0.018988283 0.17869869 0.018844185
0000e0 34 8a 6a 3a 8f 5f b6 3d db 70 69 3e c0 ab 29 3e
       0.00089469855 0.08904945 0.22796957 0.16569424
0000f0 c5 f1 bf bd 4a 39 c1 bd f6 b8 9e 3e 04 2e 1d 3c
       -0.09372286 -0.09434755 0.3100049 0.0095934905
000100 3d b8 88 bd 61 3e 9f bd 22 ef 00 bd ff 90 56 3e
       -0.06675766 -0.0777557 -0.031478055 0.20953749
000110 05 32 d1 3d 9e bf 77 3d de 6c 40 bd 96 b0 2d 3e
       0.102146186 0.060485475 -0.046978824 0.16961893
000120 4b 13 7d 3d 2d 0d 46 3e 7f 6e 21 be 7c 70 81 3d
       0.061785977 0.19340964 -0.15764807 0.06320283
000130 a8 5f a4 bc f7 d9 6c be 5c 5a 0f 3e 07 47 bc be
       -0.020065144 -0.23130022 0.13999313 -0.3677294
000140 68 59 01 3e 9b 27 aa bd 2f 13 c2 3d 59 69 d9 3d
       0.12631762 -0.083083354 0.09476315 0.106157966
000150 da ef cf 3d 2f f5 68 bd 23 f5 cc 3d b6 7a 31 3e
       0.1015317 -0.05687445 0.100076936 0.17331967
000160 c9 4c 1e 3d fa 7c 8d 3d c9 69 30 be 36 4b 83 be
       0.038647447 0.06908603 -0.17227854 -0.2564332
000170 ce 81 2c 3e 80 dc fa 3d 5f 77 ab 3d 33 a0 66 be
       0.16846392 0.12249088 0.083723776 -0.22522049
000180 48 f5 e3 3c 13 86 c1 bc 3f 8c f1 bd 1a ee d2 be
       0.02782692 -0.023623502 -0.11794328 -0.41197282
000190 0f 76 e4 bd 6a 61 c2 bd 31 d4 22 3d 24 5a 47 3c
       -0.111553304 -0.094912365 0.039753143 0.012167487
0001a0 49 bb fb 3c 83 09 12 3d 27 b1 2b be 5d d3 9e bc
       0.030728953 0.035653602 -0.16766797 -0.019387895
0001b0 fe 96 45 3e c9 e5 bd 3d de d4 a1 3d 46 4e fb 3c
       0.1929588 0.09272344 0.07901929 0.030676972
0001c0 ba 14 9d 3a 70 a0 6c bb fa 8b bd 3c eb f2 20 bd
       0.0011984326 -0.003610637 0.023138035 -0.039294165
0001d0 85 da 0f 3e 3c 4a 3d 3e 4d ee e0 bd 95 29 2e be
       0.14048202 0.1848535 -0.10982952 -0.1700805
0001e0 f7 06 5d 3d 69 3c ca bd f9 de 04 bd 5b 2f 0c 3e
       0.05396172 -0.098748036 -0.032439206 0.1368994
0001f0 3d 34 76 be da 27 1e be de 21 d1 3e 47 15 90 3e
       -0.24043365 -0.1544489 0.4084615 0.28141233
000200 8c e4 87 bd 6b f4 f1 3d 7d 1a 43 3e f5 4a ff 3c
       -0.06635389 0.11814197 0.19053073 0.031163672
000210 4b b1 e4 bd aa b9 36 be c6 ba 1b 3e 26 78 cc 3e
       -0.111666285 -0.17844263 0.15207967 0.39935416
000220 f5 09 1b bd 07 4c e4 bc c2 8b af 3d d5 5c 62 3c
       -0.037851293 -0.027868284 0.085715786 0.013816078
000230 30 2f ce 3d 59 d7 87 3d 76 22 36 be 03 d7 57 be
       0.10067594 0.06632871 -0.17786583 -0.21078114
000240 70 80 f5 bc 4f 85 56 bd fd 37 88 3d f8 49 07 3e
       -0.02996847 -0.052373227 0.06651304 0.1321181
000250 14 e6 ad bd 23 5f 84 3d f4 55 21 3e be 3b a5 be
       -0.084911495 0.064634584 0.15755445 -0.32272142
000260 8e 2b 49 be 31 1a 00 bd 28 70 13 bd c7 27 a7 be
       -0.19645521 -0.031274978 -0.035995632 -0.32647535
000270 5b 93 6b bc c9 c2 37 3d c8 9a 8c ba db 36 fa ba
       -0.014378394 0.044863496 -0.0010727281 -0.0019089835
000280 51 9c 33 be 6e 80 b2 3d 9f 80 20 bc 15 57 7b 3e
       -0.17540099 0.08715902 -0.009796291 0.24544938
000290 bc 54 c7 bd 00 60 cf 3d ea 3b 8b 3e b5 04 d3 3e
       -0.09732959 0.101257324 0.27194148 0.4121453
0002a0 5e 6a 6d bb 33 58 5f 3e bd 0b 4b 3e 43 98 33 3e
       -0.003622673 0.21810989 0.19828697 0.17538552
0002b0 8e b8 b7 bd ee d6 22 3d 28 24 82 3c 10 b7 0d be
       -0.08970748 0.039755754 0.015886381 -0.13839364
0002c0 fe b6 d3 3d 19 62 1a be 6e 29 33 3d 1e 83 1d 3e
       0.10337637 -0.15076484 0.043740682 0.15382048
0002d0 ee 83 0b be e5 f3 9a be c7 c9 dd be 28 7a 87 be
       -0.13624546 -0.30264202 -0.43318006 -0.26460385
0002e0 fc 58 52 3d b7 c7 b8 3d 66 76 38 be 12 ac 20 be
       0.051354393 0.090224676 -0.18013915 -0.1569064
0002f0 89 b9 18 3e 76 e9 a9 3d 4a fb ae 3e 52 81 2e be
       0.14914526 0.08296482 0.34176093 -0.1704152
000300 e9 bc 70 3d 04 f7 ca 3d 65 16 42 be 60 d8 4d be
       0.05877391 0.09910396 -0.18953855 -0.20102072
000310 23 cc c7 bd e7 66 36 3e 64 b7 44 be ac bd 4c be
       -0.09755733 0.17812692 -0.19210583 -0.19994229
000320 83 81 77 3e 35 ef 1a 3e ae d2 84 3d 25 85 0e be
       0.24170499 0.15130313 0.064854965 -0.13917978
000330 a1 12 fa bd c2 df bf 3d e4 fc 1d 3c 1e 7d b9 ba
       -0.122105844 0.0936885 0.009642813 -0.0014151668
000340 c3 90 2b 3e 05 78 84 3d 05 67 be bd b4 d5 21 3e
       0.16754441 0.064682044 -0.09296993 0.15804178
000350 44 d8 d3 3d d4 e2 6e be 4e fd 86 be 7e 1b 40 be
       0.10343984 -0.23328716 -0.2636513 -0.18760487
000360 ec 0c 03 3e 54 d9 b2 bd 5e 24 52 3e 95 a3 59 be
       0.12797898 -0.08732858 0.20521685 -0.21253808
000370 e7 94 a8 3d 53 63 37 3e ee be d6 3d ac 09 a8 bc
       0.08231526 0.17908983 0.10485636 -0.020512424
000380 93 0a 32 3e c2 3a d3 3c 33 86 38 3c f3 87 63 3d
       0.17386846 0.025784854 0.011262464 0.055549573
000390 47 9e 8f be 8e e3 19 bd f1 2a 1d bd da 3a 47 be
       -0.28050444 -0.03757053 -0.03837103 -0.19456044
0003a0 48 25 8d be 27 cc 9b 3e dd 10 94 3e 49 b4 a1 be
       -0.27567506 0.30429193 0.28919116 -0.3158286
0003b0 9e b8 2c 3e 6c 91 9b 3a aa 77 3a be 91 e4 fc bb
       0.16867301 0.0011868901 -0.1820971 -0.007717677
0003c0 80 78 dd bc 2c ef 34 be 0c 39 8e be c7 85 82 bd
       -0.027034998 -0.17669362 -0.27777898 -0.06373172
0003d0 06 e0 55 3e c0 69 ef bd 65 5a 80 be 62 56 ef bd
       0.2088624 -0.11690092 -0.25068966 -0.11686398
0003e0 7a ff 53 3d e8 a7 80 bd 35 27 4e 3d 1f eb 1b be
       0.051757313 -0.062820256 0.05033036 -0.1522641
0003f0 3d 71 8b 3d 22 88 14 3d 00 b5 4a 3e 11 33 36 3e
       0.06808708 0.03626264 0.19795609 0.17792918

fc4.bias f4 [120]
000000 29 d8 ad 3e 21 04 b9 bd 40 47 15 bd 16 24 ef 3d
       0.3395398 -0.09033991 -0.036444902 0.11676805
000010 b4 a6 6d 3e 32 d0 8e 3e b0 58 91 3e 7f f1 b6 bc
       0.23208123 0.27893215 0.28387976 -0.022331951
000020 e3 7c 01 3d c9 ae 4a be 8c f3 91 3d 8b 93 3d 3e
       0.031613242 -0.19793238 0.07126531 0.18513314
000030 d5 30 92 bd 17 e7 c4 bd 2b 33 54 3e a8 28 a5 3e
       -0.0713822 -0.096143894 0.20722644 0.3225758
000040 8f 04 a2 bd ef 58 23 3e c2 0e 4b be 5d d2 e8 3d
       -0.07911026 0.15951894 -0.19829848 0.113682486
000050 f8 5f 5f be 41 0e 83 bd d7 ce 75 be 6e 71 c9 bd
       -0.21813953 -0.06399203 -0.24004684 -0.09836088
000060 2e 45 ab 3e 78 51 a6 be 6a 91 34 3d 82 88 52 be
       0.33451217 -0.3248403 0.04408399 -0.20559886
000070 c4 88 01 be 82 30 e0 3d dd b3 67 be 4c 9c ba 3d
       -0.12649828 0.10946752 -0.22627206 0.091118425
000080 06 bf 3d be f3 13 82 3d 59 8d 25 be 24 be 9e 3c
       -0.18529901 0.06351461 -0.16167201 0.019377775
000090 c7 50 9e be 08 83 07 be 45 b3 a1 be c6 a9 e0 b9
       -0.30921003 -0.13233578 -0.31582084 -0.000428511
0000a0 61 02 8e 3d 60 ac a0 3d 65 7d 3f bd 5e 50 4e 3e
       0.069340475 0.07845378 -0.046750445 0.20147845
0000b0 50 23 80 3d bb 47 0f be 32 ed d1 3d 5f 64 a9 3d
       0.06256735 -0.13992207 0.102503195 0.082710974
0000c0 c6 24 4c be d3 ae f4 bd fe 2f 87 be fe 84 46 bc
       -0.19935903 -0.119474076 -0.26403803 -0.012116669
0000d0 b0 c1 90 3e 95 8a 3e 3e f7 e8 69 be 18 74 0b be
       0.28272772 0.18607552 -0.22842775 -0.13618505
0000e0 2d f4 3a be a6 3a 0b 3d d8 49 2a be 11 53 66 3d
       -0.18257208 0.03399148 -0.16629732 0.056231562
0000f0 4c c5 23 3e 6e ab a0 bd cb 79 9f bd 85 4e 51 3d
       0.15993232 -0.078451976 -0.07786902 0.051100273
000100 eb a3 ad bd 43 2b 1c be c4 4d 7c be 5b 21 59 3c
       -0.084785305 -0.15250878 -0.2463904 0.0132525815
000110 63 c4 e7 bd e2 fe 8a be 84 e0 55 be 39 52 27 bd
       -0.11316755 -0.27147585 -0.20886427 -0.040849898
000120 bc eb ae 3e 68 13 d6 bd a1 67 d1 be 50 22 cc be
       0.34164226 -0.1045292 -0.40899375 -0.39869928
000130 3d 5a 75 3e 84 23 84 be ae f3 55 3c df 0f 9e bd
       0.23960204 -0.25808346 0.013058586 -0.07717871
000140 5d 88 67 bd 1c 31 f0 3d c7 16 d8 bd 61 72 02 3e
       -0.05652653 0.11728117 -0.105512194 0.12738945
000150 66 a8 89 bc 85 a3 bb bd cd 85 4b 3e d6 c0 b0 3e
       -0.016803931 -0.09162048 0.1987526 0.34522122
000160 1f 7b 58 be 72 f3 87 3c 7e 71 a7 3d ed 83 0a 3e
       -0.21140717 0.016595576 0.08175944 0.13526888
000170 fe 7a f5 3d 87 88 84 bd a2 04 91 3e c4 a8 4b bc
       0.119863495 -0.06471353 0.28323847 -0.012430374
000180 d2 22 49 3e b4 6e fe 3d 77 ee b3 bd 7e 68 cb bd
       0.19642189 0.12423459 -0.08785718 -0.0993204
000190 6c ab 36 3e ac a6 81 3c 41 60 6e bd e1 95 d8 3d
       0.1783883 0.015826546 -0.058197264 0.10575462
0001a0 43 c9 35 3d 4f d5 71 bd c0 68 65 be cf 4c d1 be
       0.04438139 -0.059041318 -0.2240324 -0.40878913
0001b0 4a 1e 0c 3e e2 4f 8c 3e 7b 82 73 be 58 aa 96 3e
       0.1368343 0.27404696 -0.23780243 0.29426837
0001c0 98 34 c3 be 49 b8 bc bd ec b6 dd 3d 0f 6a 9f 3e
       -0.38126063 -0.09214837 0.10825905 0.31135604
0001d0 91 36 53 bc 0a 2d b3 3c 12 16 12 3b 6f bf 2d 3e
       -0.012891428 0.021872062 0.0022290987 0.16967557

fc5.weight f4 [84, 120]
000000 32 96 ab bd 90 26 2a bc 19 77 54 bd 9c 39 2b 3e
       -0.08378257 -0.010385171 -0.051871393 0.16721195
000010 29 49 25 3e ca a2 1e 3e 93 87 98 bc 90 16 1c be
       0.1614119 0.15491787 -0.018619334 -0.15242982
000020 33 96 8e bc 4e fe 00 3e ff f7 7f 3c 6a 7d 37 3e
       -0.017405605 0.1259701 0.015623092 0.17918935
000030 a6 c4 23 be 5e a6 55 bd 31 16 95 3d bc ff dc 3c
       -0.15992984 -0.052160613 0.07279623 0.026977412
000040 0a c5 a2 3c d1 2d 06 bd a5 d4 8e 3d 26 77 82 bd
       0.019869346 -0.032758538 0.069741525 -0.06370382
000050 6f db fd bd ea 8a c5 3c bd 9a 85 be 76 c5 00 3e
       -0.12395369 0.024114091 -0.26094618 0.12575325
000060 7c e8 8a 3d ec 1f 3d be f8 00 ea bd 1c 37 0d be
       0.06782624 -0.18469208 -0.11425966 -0.13790554
000070 67 42 84 be 17 65 a7 bd 4a d0 20 3e 0d d2 fd bb
       -0.2583191 -0.08173578 0.15704456 -0.0077459873
000080 21 6f 56 be 9f 18 36 bd c8 b2 4f 3d 06 23 7e bd
       -0.2094083 -0.044457074 0.05070761 -0.06204512
000090 cc 97 0f 3e bc 14 1f 3d f9 3f b7 bc 5e 1e 9f bd
       0.1402275 0.038838133 -0.022369372 -0.07769464
0000a0 9c 03 2b 3e a7 b1 26 3d 2b 1e f3 3d bf 21 13 be
       0.16700596 0.040696766 0.118709885 -0.14368342
0000b0 86 50 6a 3d e8 36 76 be db 17 11 3e f6 c3 78 3d
       0.0572057 -0.24044383 0.14169256 0.060733758
0000c0 d3 31 47 3d fa 8a e5 bd f2 47 b6 bd 7d b9 bb 3d
       0.0486315 -0.11208148 -0.08900441 0.091662385
0000d0 a1 50 73 be 8b b4 45 bd dd 70 4e bd f2 8a b0 bd
       -0.23761226 -0.048267882 -0.050400604 -0.08620252
0000e0 09 0b 8a bc 2a 29 c4 3d 1f 73 b6 3d 39 d8 6e 3e
       -0.016850965 0.09578164 0.08908676 0.2332467
0000f0 89 89 33 bc d8 4a be bd 5f 2c 64 3e 6e c2 3e 3d
       -0.010958084 -0.09291619 0.22282551 0.04657214
000100 86 73 37 bd 51 5e e3 bc 73 fd 13 be 54 19 6c bc
       -0.044787906 -0.027754935 -0.14452152 -0.014410336
000110 2c cc 5f bd b0 0c d1 3d 86 ce a9 bd b1 c8 bd 3d
       -0.054638073 0.10207498 -0.08291344 0.092667945
000120 98 61 68 bd e1 18 94 3b 71 e8 6f bd 4f 72 bf 3d
       -0.056733698 0.0045195674 -0.058571283 0.093479745
000130 03 96 91 3e 93 1e af 3b 1e e5 0b 3d 50 47 bd bd
       0.28434762 0.005344221 0.03415405 -0.092421174
000140 12 56 92 bc 61 9b 09 3c 12 2e 41 bd 22 49 cb bd
       -0.017863307 0.008398862 -0.047163077 -0.09926058
000150 4a 45 75 3c e7 b6 c0 bb 0d d2 07 3e b9 f7 56 3d
       0.014970133 -0.0058811787 0.13263722 0.05248234
000160 85 7c cd bd 4e 8f 6c bd 61 db ee bd e0 be 62 be
       -0.10033516 -0.057753853 -0.11662937 -0.22143126
000170 fc 10 43 bd a0 81 e9 bd fd 63 92 bc bf 9a 49 3e
       -0.04762362 -0.11401677 -0.017869944 0.19687937
000180 85 c3 12 3e 16 66 1c bc d7 5b 11 3e 86 2b c4 b8
       0.14332397 -0.009545824 0.1419519 -9.354115e-05
000190 de 76 8f bd 57 31 8b bd 44 ad 46 bd 94 83 a4 3d
       -0.07005094 -0.0679652 -0.048505083 0.08032909
0001a0 95 f5 c8 bd 8d 2b b7 3d 04 64 ed 3d b2 42 4f be
       -0.09812466 0.089438535 0.11591342 -0.20240286
0001b0 33 ab 5d be 0e 9a 20 be 89 a2 fa 3c 8f 26 93 bd
       -0.21647339 -0.15683767 0.03059508 -0.07185089
0001c0 16 f6 6f bd 8d 13 95 bc 8b 73 14 be a6 a8 79 3d
       -0.058584295 -0.0181978 -0.14497201 0.06095185
0001d0 61 c2 e2 bd b5 f9 fa 3d b2 d5 aa 3d f6 2a 04 3e
       -0.11072231 0.12254659 0.083415404 0.12907013
0001e0 78 0b 0a 3e e9 fd 08 be 81 d2 12 bd 46 47 0a bd
       0.13480937 -0.13378109 -0.035845283 -0.033759378
0001f0 ea ff 9e bd 50 30 50 bd 47 4e 7f bb 52 91 6d 3c
       -0.077636555 -0.050827324 -0.003895657 0.014499979
000200 d3 2f 9e bc 9b 9c c7 bd 4b 5e 1e 3d e9 ed bb bd
       -0.019309914 -0.09746667 0.038664144 -0.09176237
000210 4b ac bf bc c7 df cf 3d 03 34 72 bb d4 e3 82 bd
       -0.023397585 0.10150104 -0.003695727 -0.06391111
000220 3e d0 37 3e a3 7e c2 bd 93 6e fc 3c ff 6a d3 3c
       0.17950532 -0.0949681 0.030814445 0.025807856
000230 0c a6 a5 3d 84 86 9d bc 22 38 93 3c ef 44 26 3d
       0.080883116 -0.019229181 0.017971102 0.040593084
000240 1e 43 0b bd d4 cc 0a 3c c0 18 bb bd 00 dd 15 3e
       -0.033999555 0.008471686 -0.0913558 0.14635086
000250 4d 06 c8 b9 af 34 3d bd 57 8f 2f bd dd 6f fb bd
       -0.00038151667 -0.04619282 -0.04286131 -0.122771956
000260 aa c7 86 bd d3 93 bd ba 56 fa bc 3d 35 c3 18 bd
       -0.06581052 -0.0014463611 0.09227435 -0.03729554
000270 2e 53 87 3d 57 20 e3 bc 7d 09 71 3d 57 a6 10 bc
       0.06607662 -0.027725382 0.05884694 -0.008828721
000280 23 cc f4 bd 40 f5 7a b8 03 65 77 3e 78 70 3e bd
       -0.119529985 -5.983305e-05 0.24159627 -0.046493977
000290 3f 6c f6 bc 63 fa 23 3d 05 32 8e 3d 1d 10 65 bd
       -0.030080913 0.04003371 0.06943134 -0.05592357
0002a0 6e af 3a bd 69 bc c1 bd a3 d7 82 bd 06 fd 03 3e
       -0.04557746 -0.094597645 -0.06388786 0.1288949
0002b0 f2 4d 1e 3e 1b 5d 27 3d 8a f1 9e 3d 35 23 d4 3d
       0.15459421 0.040860277 0.07760914 0.10358278
0002c0 26 cc a7 3d 04 d1 87 3d 11 f5 87 bc bc e4 0b bd
       0.08193235 0.066316634 -0.016596349 -0.034153685
0002d0 70 0f cc bd 7a 97 e4 bd 26 66 58 3b 41 79 17 bd
       -0.09963882 -0.11161704 0.003301987 -0.03698087
0002e0 7b ac 81 bd 59 81 30 3b 06 3f 11 be 54 46 91 bd
       -0.06331726 0.0026932566 -0.14184198 -0.07093492
0002f0 32 11 50 3d a9 ae a4 bc 71 2a e3 3c 70 1e bf bd
       0.05079765 -0.020102816 0.027730199 -0.09331977
000300 bf 3e 1d 3e 82 9a 91 bc 82 16 19 be ba d9 f1 3c
       0.15355967 -0.01777387 -0.14949992 0.029522765
000310 23 67 45 bd 44 e4 2b bd 00 01 f7 3c 94 a8 4c 3c
       -0.048194062 -0.041965738 0.030151844 0.012491364
000320 43 d2 79 be cb a0 a7 3d f8 b1 34 be 24 c2 69 3d
       -0.24396615 0.08184966 -0.17646015 0.057069913
000330 c4 d1 8c 3e 82 5a 04 3d 85 a1 b3 3c df 16 57 3c
       0.27503788 0.032312877 0.021927604 0.0131280115
000340 cc 9b 2b 3d a6 61 66 be 56 11 1c be ef a0 28 bc
       0.041896626 -0.22498187 -0.15240988 -0.010292276
000350 fc b1 00 bd 1d 3b c8 3d db 04 9e bd c6 fc 96 3d
       -0.03141974 0.097769 -0.0771577 0.073724315
000360 c9 c3 9b 3d 67 ad 05 3d f0 b6 e8 bd 5a 64 87 bd
       0.076057024 0.032636072 -0.113630176 -0.066109374
000370 c8 c7 3d be 8b 31 16 3e 37 59 ac 3d e7 4f 45 ba
       -0.18533242 0.14667337 0.08415454 -0.000752686
000380 c6 e7 c4 3d 5c e8 43 bd 0a 32 a0 bd 48 97 de 3d
       0.0961452 -0.047829017 -0.07822044 0.10868698
000390 34 b9 19 3c 00 f1 fc 3d 9c 98 0f be 34 e9 b9 3d
       0.009382535 0.123506546 -0.1402306 0.09077683
0003a0 13 ab 8d 3c 70 a8 57 3d c6 5d 76 be da 92 32 bc
       0.017293489 0.05265087 -0.24059209 -0.01089927
0003b0 8f bb 33 3d b0 ea 33 3d 8f 25 35 3e c3 11 89 bd
       0.04388004 0.043924987 0.17690109 -0.06692841
0003c0 26 83 85 3d 6e 81 a6 3d 52 ff 23 be 6c ab ff 3d
       0.06519155 0.081301555 -0.16015366 0.12483868
0003d0 f2 65 a9 3c 07 0c 21 be 4e b3 3d be 65 9a 2a be
       0.020678494 -0.15727244 -0.1852543 -0.1666046
0003e0 5c 50 fb bd 47 48 aa bd ab 8c 85 3d 09 37 19 3e
       -0.12271187 -0.08314567 0.06520971 0.149624
0003f0 7c 1f db bd 95 53 5e 3e 13 d2 44 be c6 76 ee 3c
       -0.106993645 0.21711572 -0.19220762 0.02910937

fc5.bias f4 [84]
000000 c9 f8 9b 3d 1c 38 05 3b 89 ec 1f be 03 a3 a4 bd
       0.076158114 0.0020327633 -0.15617575 -0.080389045
000010 30 52 4e 3e 13 8f bb 3e 97 d4 c3 bd 97 b3 2d 3e
       0.2014854 0.36632594 -0.09562033 0.1696304
000020 dd 8d 0c be 86 a9 be bd 21 23 bd bd bd a5 02 bd
       -0.13725992 -0.09309678 -0.09235216 -0.03189634
000030 f8 9b 40 be 61 0f 84 be 85 fc 7f 3d b3 ab 43 3c
       -0.18809497 -0.25792983 0.06249668 0.011942792
000040 9a bc 6a 3e ea ae e7 3e 6d e1 cf be b0 54 04 3e
       0.22923508 0.45250636 -0.40601674 0.1292293
000050 b6 12 15 3e cb 5e 54 3e a8 45 44 3e 4d ce 18 be
       0.14557919 0.20739286 0.19167197 -0.14922448
000060 bb 1b 93 3d 92 bc c4 3d 30 ec 84 3d 65 09 2d 3e
       0.071830235 0.096062794 0.06490362 0.16898115
000070 ca 8c 4d 3e 8e 9c e9 bd 0b 8f 53 be 29 86 8b be
       0.20073238 -0.114068136 -0.20660035 -0.27250794
000080 31 b8 5c be 3f e3 e4 be 95 94 12 3e 56 a6 b5 bd
       -0.21554638 -0.44704625 0.14314492 -0.08869617
000090 88 89 22 3e 8c 5b 50 bd da 2c 53 3e ba 7e fe bd
       0.15872777 -0.050868556 0.20622578 -0.12426515
0000a0 34 5d 27 be 79 4d 27 3e 55 df 17 3e e9 78 34 3e
       -0.16344148 0.16338147 0.14831288 0.17624249
0000b0 41 76 9b 3e ee 7e 05 be 05 82 a3 be d5 6a a0 38
       0.30363658 -0.13036701 -0.31935135 7.6492935e-05
0000c0 9c 35 5a be 4c a0 4e 3d 82 52 84 be a6 5d 15 be
       -0.21309513 0.05044584 -0.25844198 -0.14586505
0000d0 39 3d 57 3d 58 71 a0 3e 83 e3 14 bc ea da c8 bd
       0.05254862 0.31336474 -0.009087446 -0.098073795
0000e0 71 e6 d6 3e 8e 0f 7a 3c 87 47 82 3d 41 77 06 3e
       0.41972688 0.015262498 0.06361299 0.1313143
0000f0 2d fc 9e 3c 5d c4 32 3e 94 a0 69 be 2c 2b 96 3d
       0.019407356 0.17457719 -0.22815162 0.07332453
000100 e0 10 a0 bd 35 85 9b be 8d 17 ac bc 7e 48 40 3d
       -0.07815719 -0.30375066 -0.021007324 0.046944134
000110 ec 32 14 3e 2f 4c 8a 3e ca 33 fa bc 6c e6 74 be
       0.1447255 0.27011248 -0.030542273 -0.23916024
000120 c1 c6 37 3e d5 28 de bd 28 d6 4f be 27 52 0b be
       0.17946912 -0.10847632 -0.20296538 -0.13605557
000130 68 05 22 3e 8b 33 fd bd 77 d6 b2 3e c7 a6 54 3c
       0.15822375 -0.12363347 0.3492925 0.012979216
000140 27 18 47 3d 29 c3 bf bd a6 fc 24 be 27 ef e6 3d
       0.048607018 -0.09363396 -0.16112003 0.112760834

fc6.weight f4 [10, 84]
000000 7e b0 0a 3e 07 66 7e bc dc 7e b2 3d de 9c 44 3d
       0.13543889 -0.015527255 0.08715603 0.048001163
000010 08 c5 05 be 3b 18 83 bd b4 03 dc 3d 0c 7a 37 be
       -0.13063443 -0.06401106 0.10742894 -0.17917651
000020 db fe f9 3d 05 d1 8d 3c ba 81 69 3d 53 23 2c be
       0.12206813 0.017311582 0.057008483 -0.1681035
000030 ed f8 7b 3d d3 63 1d bd 7a bc 67 3e 3b 5a bf 3d
       0.06151669 -0.038425278 0.22630492 0.09343382
000040 56 e7 50 be 9f 6d 4f be 92 e3 e2 3d d8 1f bf 3b
       -0.20400748 -0.20256661 0.11078562 0.0058326535
000050 81 b0 ca 3d 44 1e 17 be ab eb fa bd 64 8b 01 3e
       0.09896947 -0.14757639 -0.12251981 0.1265083
000060 3f 70 73 3d dc d5 e0 bd b9 f8 7a 3c 1f 0c 5d bd
       0.059433218 -0.109782904 0.015318089 -0.053966638
000070 34 20 13 3d cf 0b 58 bd 84 44 f0 3c 6f f3 04 3e
       0.035919383 -0.052745637 0.029329546 0.12983488
000080 51 77 0a 3e fc 9f 3d 3e ee 39 81 bd 44 2e ce 3d
       0.13522078 0.1851806 -0.06309877 0.10067418
000090 75 a7 c8 bd 6e 67 34 3e bb 8b a4 bd c5 37 01 3d
       -0.09797565 0.1761758 -0.08034464 0.031547327
0000a0 f7 b9 17 bd 6b a5 07 bd e5 30 80 bd 0e 6a ee bd
       -0.037042584 -0.03311674 -0.06259326 -0.11641322
0000b0 38 c9 f6 bb d1 92 e3 3d 27 8f 27 3e b3 c8 bc bc
       -0.0075313114 0.111119874 0.16363202 -0.02304492
0000c0 1a ef 6d 3d 5d 25 f6 bc b1 a2 0f bd 4a f3 92 3d
       0.058089353 -0.030047113 -0.035067264 0.0717531
0000d0 18 a5 18 bd 6a ad 16 be a1 eb e3 3d f1 87 41 bd
       -0.03726682 -0.1471459 0.11128927 -0.047248784
0000e0 3c e6 85 be 47 60 64 3d e4 df c0 3d 86 2e 16 bd
       -0.26152217 0.05575588 0.09417704 -0.036665462
0000f0 ed 02 66 ba 0f 9a 4e be 7a ce 5d 3e 46 ae 07 bb
       -0.00087742397 -0.20175956 0.21660796 -0.002070324
000100 7b c9 60 3d bd 5e 72 3e f4 02 17 3d e6 ac 4f 3d
       0.054879647 0.23668952 0.03686805 0.050702
000110 c1 d1 5d bd 73 ef 0c be da 5c 5a 3e bb d0 d0 3d
       -0.054155115 -0.13763218 0.21324483 0.10196062
000120 5d 74 1a be ad 31 45 3e 6e 0d 46 3e f1 d5 d2 3a
       -0.15083452 0.19257231 0.1934106 0.0016085488
000130 cd bb 88 bd 4e 0f 55 3e 1a 6d af bd d3 c1 0d be
       -0.06676445 0.2080662 -0.08565731 -0.1384347
000140 ba aa 84 3a ac c2 84 3d c3 b9 c6 3d 10 aa bb bd
       0.0010121681 0.06482443 0.097034 -0.09163296
000150 cc ba bd 3d aa b1 be 3b 9a 60 2e be a6 19 c1 bd
       0.09264144 0.005819519 -0.17029038 -0.0942872
000160 e2 25 75 3d 1f cc 3d 3d 97 22 dc bc 2a 00 e1 bd
       0.05985058 0.046337243 -0.026871962 -0.109863594
000170 5f c7 20 3d cc ce ac 3d e3 3e e8 bd d6 3b b0 3a
       0.039252635 0.08437881 -0.1134012 0.0013445567
000180 f8 ff 55 3e e8 1b 9c 3d 23 2b c7 3d b8 b8 d5 3d
       0.20898426 0.0762251 0.097250246 0.10435623
000190 c5 d2 39 3e 1c bb 39 3d 3c 94 2b 3a f6 14 21 bd
       0.18146808 0.045344457 0.0006545221 -0.03932663
0001a0 c2 6d ac 3d f7 ab e8 bd fd 1e 1b 3e af be 8a bd
       0.08419372 -0.11360925 0.1514854 -0.06774651
0001b0 98 95 a6 bd db ea 03 be 80 4f 3a 3c 71 85 11 3c
       -0.081340015 -0.12882559 0.011371493 0.008881913
0001c0 6e de 48 bc da 1a 53 be a2 27 ab bd ca c4 48 3c
       -0.012260063 -0.20615712 -0.08357169 0.012253949
0001d0 d4 87 c8 3d 9d 59 79 bd b0 44 1e bd 0f a7 72 bb
       0.09791532 -0.060876478 -0.038639724 -0.0037025844
0001e0 8f 7f 04 be 47 36 41 3d d4 52 c7 bd 6f 3c 3d 3e
       -0.12939285 0.047170904 -0.09732595 0.18480085
0001f0 2b 4a 24 3d 70 ae 0f 3e 01 46 9f be f5 f5 fc 3d
       0.040109795 0.14031386 -0.31108096 0.123516
000200 26 e1 57 3d 0d af 71 bd 77 ed d8 3d 98 67 b2 3d
       0.052704953 -0.059004832 0.10592168 0.08711165
000210 e3 ea 02 be cb 5d 84 bd 80 de 33 bd 05 0e 15 be
       -0.12784915 -0.06463202 -0.043913364 -0.1455613
000220 e1 a8 1a 3e fe 8c 3a bd 55 3d 9b 3d 41 33 0c be
       0.15103485 -0.045544617 0.075800575 -0.13691427
000230 11 42 c1 bd 0a 50 92 bd a0 08 00 be 71 c3 0a be
       -0.09436429 -0.071441725 -0.1250329 -0.13551117
000240 a0 aa 8e bd ba 29 0e 3d 2c 15 65 3c 5d 82 a6 3c
       -0.06966138 0.034707762 0.013982099 0.020325834
000250 e7 2c 38 bc 94 b6 6d bd c0 ea a1 bd e4 94 e9 bd
       -0.011241174 -0.05803545 -0.07906103 -0.11405352
000260 c0 19 96 3d 1b 15 b7 bd 8c b8 3c be 48 56 03 be
       0.0732913 -0.089395724 -0.18429774 -0.12825882
000270 b0 b5 80 be d8 62 f0 bc 69 09 28 3e 31 db e8 3d
       -0.25138617 -0.029344007 0.1640984 0.113699324
000280 bb b4 ca ba 60 eb 44 bd 75 49 b5 3b 96 de f7 bc
       -0.0015465239 -0.048076034 0.0055324384 -0.030257504
000290 70 51 51 3d 7b 0a 38 bd 97 6d 55 be f3 77 88 bd
       0.051103055 -0.04493187 -0.20842586 -0.066635035
0002a0 5f b5 f4 3d b3 99 47 bc 38 ed 69 3d d8 08 91 3c
       0.11948656 -0.012182641 0.057110995 0.017704412
0002b0 18 86 8d 3d 91 1f 01 3e 0f 75 9a bc 57 fd 07 3d
       0.06910342 0.12609698 -0.018854646 0.033200588
0002c0 6c bf 29 bd 25 73 a5 bd 4c 05 af bc ce 90 35 be
       -0.04144232 -0.08078603 -0.02136483 -0.1773102
0002d0 be f3 3b 3d df 20 e5 bd 84 c0 50 3e ec 86 94 3c
       0.045886748 -0.1118791 0.20385939 0.018130742
0002e0 0f 69 b9 bd ff c8 dc 3d a2 03 86 be 9c 25 24 3d
       -0.090532415 0.107805245 -0.26174647 0.04007493
0002f0 02 ba df 3d c2 aa c5 bd 1a 56 52 3d ce ac d0 3d
       0.1092415 -0.0965171 0.051351644 0.1018921
000300 e5 44 19 3e 79 4e 50 bd b5 5e 28 3d ba 4d f8 3c
       0.14967687 -0.050856087 0.041105945 0.0303105
000310 7d d8 b3 3d cb 4f 7e 3c fb 2c 1f bd ba bd 87 bc
       0.08781526 0.015521954 -0.038861256 -0.01656996
000320 4f e2 0d be 45 df 43 be 79 d9 2c 3d 3c c3 f1 3a
       -0.13855861 -0.1912814 0.042199586 0.0018445025
000330 e7 c2 a9 bc 8d 0c af 3d 8e b4 6d 3c ec fc 7c bd
       -0.02072282 0.08547316 0.01450838 -0.061764643
000340 40 0c c0 bb cf 4c 6a 3d 36 43 18 bd f4 af 43 3d
       -0.0058608353 0.057202157 -0.037173472 0.047775224
000350 33 0a 39 3e d6 49 b7 3c 6f 83 31 bd a2 e8 e0 3c
       0.18070297 0.022374075 -0.043338235 0.027454678
000360 b7 ef d9 bc 13 f3 ac bc 49 92 b9 bd 5a b2 6c be
       -0.026603563 -0.021112 -0.09061105 -0.2311491
000370 c3 d3 04 3e 23 e3 99 3d 11 23 4d 3d d5 7b 01 be
       0.12971406 0.07514026 0.05008227 -0.12644894
000380 e1 e1 b5 bb 34 34 8d 3e a0 5c d0 3d 8b fe c0 3d
       -0.0055506085 0.2757889 0.10173917 0.0942355
000390 5d 55 28 3d e7 3b 85 3d 31 9b ae 3d 20 63 97 3c
       0.041097034 0.06505566 0.08525694 0.018479884
0003a0 2d 05 a6 bc ab b9 ce bd e3 2d 3a bd 36 38 6f be
       -0.02026614 -0.10094007 -0.045453917 -0.23361287
0003b0 10 0a 1c 3e 63 a1 4e 3d 25 cb e6 bc c1 f2 41 be
       0.15238214 0.05044688 -0.028173039 -0.1894026
0003c0 6f 03 6e bd ac e5 9a 3d 6c 40 35 3c 73 95 3f 3d
       -0.058108743 0.07563338 0.011062723 0.046773385
0003d0 7d 6b 13 3d a6 59 78 3a 48 6e 13 3e 48 e2 fc bd
       0.03599118 0.0009473808 0.14397538 -0.12347847
0003e0 07 20 86 3d 7e fe 2b 3d 38 4a 1f 3c 1c 8d 84 3e
       0.065490775 0.04199075 0.009722285 0.25888908
0003f0 6d e4 e6 3d 30 a9 66 3c 9f 8f 98 bc 13 fc e0 3c
       0.112740375 0.014078423 -0.018623171 0.027463948

fc6.bias f4 [10]
000000 ac f8 d3 be 9e 96 e0 bd c6 4a 68 3e e7 f8 84 3e
       -0.4140066 -0.10966228 0.22684774 0.25971147
000010 c4 9f 84 bb 02 cc 31 3e b5 3d 16 3d d8 68 5b bd
       -0.004047366 0.17362979 0.036679942 -0.053566784
000020 9a 7d b4 3d d5 08 39 bc
       0.08813019 -0.01129361
