model_history/model.pt (torch, 180807 bytes, 10 tensors)

layer1.0.weight f4 [6, 1, 5, 5]
000000 ff 0f c0 bd c6 6d 98 3e 89 c6 30 3f 1b d2 71 3f
       -0.09378051 0.2977125 0.6905294 0.9446122
000010 2d 78 5b 3f 76 3d c8 be ab 8f 11 3e 01 91 17 3f
       0.8573025 -0.3910939 0.14214961 0.59205633
000020 dc 5a 81 3f cd b3 60 3f 92 64 f2 be 0a 29 99 be
       1.0105853 0.87774354 -0.47342354 -0.29914123
000030 ef ad 5f be 8f 33 80 3e 78 2b de 3e 25 54 10 bf
       -0.21843694 0.25039336 0.4339254 -0.56378394
000040 62 f2 57 bf cc db 0f bf 64 93 b8 be fd de ca 3e
       -0.8435422 -0.5619476 -0.3604995 0.39623252
000050 55 3e 85 be 18 69 38 bf 2f cf 96 bf 09 1f dc be
       -0.26024118 -0.7203536 -1.1781977 -0.42992428
000060 5a aa b7 3d 16 8d e8 bd dd 72 1e bf 19 60 85 bf
       0.08968039 -0.11355035 -0.6189402 -1.0419952
000070 6e 30 07 bf d4 8e 0b 3f c1 50 0f 3d 6f e5 2a bf
       -0.5280827 0.54514813 0.034989122 -0.6675634
000080 bb 84 79 bf ce 4d 56 bf 8f b7 29 be a2 dd 0d 3f
       -0.97468156 -0.8371247 -0.16573928 0.5541631
000090 d1 e8 15 bd c4 b6 38 bf 4f 4e 68 bf dd 3d ae be
       -0.036598984 -0.7215388 -0.9074449 -0.34031573
0000a0 6c a3 7f 3f da 6d 8d 3f 80 5e b4 3e bd a4 50 be
       0.99858737 1.1049149 0.35228348 -0.20375343
0000b0 e9 7b 49 be 2c 37 65 3f 1c 6e cd 3f 75 01 6f 3f
       -0.19676174 0.8953731 1.6049228 0.933616
0000c0 3e f7 26 3e 61 c8 31 be 44 df 0c bf 0b 8a 2c bf
       0.16305253 -0.17361595 -0.55028176 -0.67398137
0000d0 73 54 6f bf c7 0b 32 bf ae 78 61 be 55 f5 52 bf
       -0.93488234 -0.6954922 -0.22018692 -0.82405597
0000e0 55 7b 63 bf 1e e3 5e bf 71 30 a6 be d1 65 ec 3d
       -0.88860065 -0.87065303 -0.32458833 0.115428574
0000f0 d9 39 1f bf 5c c4 8e be bc 92 36 be ec 73 e2 3e
       -0.62197644 -0.27884185 -0.17829412 0.44229066
000100 84 46 45 3f a7 61 99 be 4f 12 95 3e 8d e3 2d 3f
       0.77060723 -0.29957315 0.2911553 0.6792534
000110 de fc 6e 3f 4a ec 50 3f ea 2a d1 bd fc 40 25 3f
       0.93354595 0.8161055 -0.10213263 0.64552283
000120 77 13 51 3f 7d 0d 71 3f 35 51 3c 3f 16 09 46 3f
       0.81670326 0.94161206 0.7356141 0.77357614
000130 30 35 99 3d e9 66 88 bf f2 01 a7 bf 58 bf 67 3e
       0.07480848 -1.0656406 -1.3047469 0.22631586
000140 f8 48 5d 3f 5a f0 58 3f b7 ee 0f be 76 23 4a bf
       0.86439466 0.8474175 -0.14055906 -0.7896036
000150 e1 a2 aa be c4 1e 08 3f 92 02 8c 3f d2 17 00 3e
       -0.33327392 0.53171945 1.0938284 0.12509087
000160 88 73 3f bf b9 f8 19 bf 04 23 0d be 57 d9 94 3f
       -0.7478566 -0.60145146 -0.13782889 1.1628827
000170 0c bd 52 3f 30 94 2d bf 6d 42 2a bf dc 56 1c bf
       0.8231971 -0.6780424 -0.6650761 -0.61070037
000180 de e3 81 3f e6 5f 7c 3f 9c a4 f7 3c 26 d4 3f bf
       1.0147665 0.9858383 0.030229859 -0.7493309
000190 37 47 b0 be ae 7d 04 bf 5f c0 be be 95 c7 15 bf
       -0.34429333 -0.5175427 -0.37256142 -0.58507663
0001a0 fe 58 2d bf 6b 7f e8 be 3d 32 02 bf 37 70 3b bf
       -0.67713916 -0.45409712 -0.5085791 -0.732181
0001b0 49 57 31 bf e9 14 14 bf 6b 99 2c be 1b 50 17 be
       -0.6927381 -0.57844406 -0.168554 -0.14776652
0001c0 01 a8 30 be ca 88 1b bd db 78 ae 3e 43 0d 01 3f
       -0.17251588 -0.03797225 0.3407658 0.5041086
0001d0 9c 40 20 3f 16 3a 36 3f 4a 92 14 3f fc b4 43 3f
       0.62598586 0.7118238 0.5803572 0.76448035
0001e0 be 14 b6 3e a2 ef 02 3f 98 7c 7a 3f e0 07 39 3f
       0.355627 0.511469 0.97846365 0.7227764
0001f0 14 09 07 3f 0b 51 38 3f c1 67 19 bf 8d 9f b6 bf
       0.5274823 0.7199866 -0.5992394 -1.4267441
000200 31 b4 34 bf ca da 4b 3f c6 ac f0 3e 4d ab 52 bf
       -0.7058745 0.7963072 0.47006816 -0.82292634
000210 c3 50 94 bf 66 ec 17 bd cc 1e 5b 3f 04 4e d6 3d
       -1.1587147 -0.03709068 0.8559387 0.10464099
000220 64 2c 6e bf 29 d4 35 bf 7c 8c a8 3e df b2 8e 3f
       -0.93036485 -0.71026856 0.3291968 1.1148337
000230 69 2f 70 be ce d3 41 bf c9 34 ea be 6e ff 28 3f
       -0.23455586 -0.75713813 -0.45743397 0.66014755
000240 3c 2a a9 3f e9 80 8c be 58 31 f7 be f2 da 8b 3e
       1.3216014 -0.274421 -0.48279834 0.2731548
000250 9f 4e 97 3f ee 31 93 3f
       1.1820868 1.1499612

layer1.0.bias f4 [6]
000000 63 7f d0 3e 70 2b e9 3e 07 29 fc be b0 2c e2 3e
       0.40722188 0.45540953 -0.4925005 0.4417472
000010 0f 15 0b 3f 59 47 17 3f
       0.5432901 0.5909324

layer2.0.weight f4 [16, 6, 5, 5]
000000 ab 93 bc 3a c5 28 4f bb 8b be a6 bd ce be b6 be
       0.001438727 -0.0031609994 -0.08141812 -0.35692447
000010 4c 39 80 bd 57 ff e0 be 4a ad a6 be 2c 69 5c be
       -0.062609285 -0.4394481 -0.32554084 -0.21524495
000020 ca de 59 be a4 db 89 3e 91 c2 b9 be ee 52 af be
       -0.21276394 0.26925385 -0.36281255 -0.34242958
000030 1b 43 1c be a7 a9 01 be 36 3c c0 3a ec 89 76 3e
       -0.15259974 -0.12662373 0.0014666382 0.2407605
000040 f4 a8 d3 3d b5 06 bc 3e 1f d5 c0 bd 9b d3 c0 be
       0.103349596 0.36723867 -0.094156496 -0.37661442
000050 41 7b 22 3e 4d 5f f0 3e e4 a0 2d 3f b8 97 96 3e
       0.1586733 0.4694771 0.67823625 0.29412627
000060 fc 27 1a 3c fb 8a bb bb 24 13 18 3e 0d 66 2e be
       0.009408947 -0.005723355 0.14851052 -0.17031117
000070 ec bf 9d be 03 d8 77 be d8 4b 8f bd d8 df 0f bd
       -0.30810487 -0.24203496 -0.06996888 -0.035125583
000080 09 91 80 be 9c fe 7b be c3 62 f2 bd 7a dd 6a be
       -0.25110653 -0.24608845 -0.118352436 -0.22936049
000090 c6 75 23 bd 65 e5 1c be fd d5 75 be f0 0a 10 bd
       -0.03990724 -0.15321882 -0.24007411 -0.03516668
0000a0 52 07 e9 bd 98 20 07 bd c1 62 38 3e 1e 96 4d 3e
       -0.11378349 -0.03299007 0.18006422 0.20076796
0000b0 de 1e 26 3e 28 53 11 3e b1 18 b8 3b f2 25 0b 3f
       0.16222712 0.14191878 0.005618178 0.54354775
0000c0 82 79 fb 3e 66 aa 73 3e e7 f4 23 3e ad 70 35 3e
       0.4911614 0.2379547 0.16011392 0.17718764
0000d0 a0 c3 fd bd 47 0a 8f be 26 61 63 bd 84 f1 0a 3e
       -0.12390828 -0.27937528 -0.05551257 0.13568693
0000e0 55 67 0f be da 05 b5 be 10 4d d3 be 18 40 1c be
       -0.14004262 -0.35356027 -0.41269732 -0.15258825
0000f0 f2 2d 54 3e 8b 7b 2e 3d dc 49 b1 be aa 66 5d be
       0.20720652 0.04259829 -0.34626663 -0.21621194
000100 05 58 0a bd b9 3a c1 bc 6e 34 38 3e 3c 2d cb 3d
       -0.03377535 -0.023587571 0.1798875 0.09920737
000110 3a 1d 9c 3e 2b b5 7e 3e 2c 4f ef 3d 0b 2d 70 3e
       0.30491048 0.24873798 0.11685023 0.23454683
000120 74 36 98 3e 4b b7 27 3f 95 ca 6d bd b5 33 00 be
       0.29729044 0.6551406 -0.058054525 -0.12519725
000130 67 42 14 3c f7 47 d8 bc f6 47 19 3e ba b7 7e be
       0.009049035 -0.026401503 0.14968857 -0.24874774
000140 d0 c1 1f bd 19 a0 d9 bd 47 83 8f 3c bf bf 0d bd
       -0.039003193 -0.10626239 0.017518653 -0.03460669
000150 d8 85 9d be 32 de a6 3e 0c 48 19 3e d5 30 76 be
       -0.30766177 0.32591397 0.1496889 -0.24042065
000160 21 62 71 be 71 98 7c be 0e e6 17 3e 3c 94 c1 3e
       -0.2357259 -0.24667527 0.14833853 0.37808406
000170 ee fc 43 bd c9 c4 ae be f2 9f 08 be 95 ed 40 3d
       -0.047848634 -0.3413451 -0.13342264 0.047101576
000180 90 c9 cd 3e eb d5 da 3e cf 49 4d bd 6e d8 90 3e
       0.40192842 0.4274133 -0.050119217 0.28290123
000190 95 8f dd bd d5 4e 8a be ab ea a5 be b5 2b 7a 3d
       -0.10818402 -0.2701327 -0.324056 0.06107684
0001a0 32 49 03 3f 7d 83 d7 be 87 e5 fe be f0 08 98 be
       0.5128356 -0.42092505 -0.4978449 -0.2969432
0001b0 c9 cd 9a 3e 75 70 b2 3e 6b dd 26 bf 85 74 47 bf
       0.30235127 0.34851423 -0.65181607 -0.7791217
0001c0 f1 16 40 be 7c a2 36 3f d7 d4 32 3f d3 75 fa be
       -0.18758751 0.7134168 0.6985602 -0.48918018
0001d0 28 b5 ef be 6d 4d b3 bc 46 66 e0 3e 17 f8 98 3e
       -0.468179 -0.021887505 0.43828028 0.29876778
0001e0 2a 56 81 3d bf d5 8e 3e 39 f2 ff 3e 24 4e 96 3e
       0.063152626 0.2789745 0.4998949 0.29356492
0001f0 56 4a b3 3e c5 ec a0 3c 43 5a 89 3e b7 88 13 3f
       0.3501765 0.01964415 0.26826677 0.57630485
000200 42 15 85 3e 53 df c5 3d 92 ec c0 3e 01 b7 16 3f
       0.2599278 0.09661736 0.3768049 0.5887299
000210 6d 1b 1d 3f e7 98 3e 3e fd 4c be 3c 72 30 5b 3e
       0.61369973 0.18613015 0.02323007 0.21405199
000220 dd 3c 96 3e 0c f5 c0 bc 4f 6b 0c 3a f7 a1 fd 3d
       0.2934331 -0.023554347 0.00053565664 0.12384408
000230 73 86 4b be 0d d0 6c be 97 a0 94 be 65 00 82 be
       -0.19875507 -0.2312624 -0.2902877 -0.25390926
000240 7b 7b 97 bd 92 9c 0a bf f3 c0 88 be c4 f4 35 be
       -0.07396599 -0.5414516 -0.2670971 -0.17769152
000250 f2 33 b2 be 50 9c ad bd e1 9e 9b 3e 04 0a 88 3d
       -0.34805256 -0.0847708 0.30394652 0.06642535
000260 85 61 11 be d7 ca fc bd 3a 71 e4 3d 4d c9 b0 3e
       -0.14197357 -0.12343376 0.11154409 0.3452858
000270 95 95 8e 3e f7 11 3b 3e f3 c1 9b 3d e4 5a a4 bd
       0.27848497 0.18268572 0.07605352 -0.080251485
000280 51 59 a7 be 83 a5 4c bf 74 04 6c bf 48 35 03 bf
       -0.3268533 -0.7994005 -0.92194295 -0.51253176
000290 91 56 c9 bd 23 3c 95 bd 14 86 cf be 49 e5 51 bf
       -0.09830964 -0.07286861 -0.4053198 -0.81990486
0002a0 03 6c 2d bf 6c 97 34 be b7 86 89 3e 58 2d 65 3e
       -0.6774294 -0.17635888 0.26860592 0.22380579
0002b0 c8 54 db 3d a8 48 ae 3c 61 c4 ab bc a1 4e 60 3e
       0.1070953 0.02127488 -0.020967664 0.21904995
0002c0 13 d9 9a bc 00 e3 89 3e 36 8c de 3d 22 36 21 3d
       -0.018902337 0.26931 0.10866587 0.039358266
0002d0 1c ba 11 bc 9b 38 d8 be 07 09 04 bf 9e dc 0f bf
       -0.00889447 -0.42230687 -0.51576275 -0.5619601
0002e0 1b 67 7c be 43 72 52 3f ac 27 55 3f 35 35 27 3f
       -0.24648707 0.822056 0.8326366 0.6531556
0002f0 5d 01 ee 3e 87 ee e7 3d f6 d6 d0 be 94 af ea be
       0.46485415 0.11324792 -0.40789002 -0.4583708
000300 95 f6 8a bd 80 63 b7 3e a5 b9 44 3e 4b 31 45 3c
       -0.06785313 0.358181 0.19211443 0.012035678
000310 d3 4c ba be 70 c5 e9 be 38 af ab be f6 b3 ba 3d
       -0.36386737 -0.45658445 -0.3353212 0.09116356
000320 fa 89 00 3e 49 00 42 be 6b b2 82 be f0 c5 a7 bc
       0.12552634 -0.18945421 -0.25526747 -0.020480126
000330 bd 64 e0 bd f8 05 2b be 61 e0 f5 be a0 24 04 bf
       -0.10956714 -0.16701496 -0.4802275 -0.51618385
000340 10 ea d0 be 26 7f 19 be 62 88 e6 3e fe 92 0f 3f
       -0.40803576 -0.1498991 0.45025927 0.5608367
000350 61 be 0b 3f 52 da b4 3e 3d fb 18 3e 8f a6 95 3e
       0.5458737 0.35322815 0.1493959 0.29228637
000360 43 e0 3c 3f 76 18 37 3f 25 27 06 3f 42 ef fd 3d
       0.73779696 0.715217 0.5240348 0.123991504
000370 92 aa f7 bc 8a e9 96 3d 63 dc d5 be 46 4d fa be
       -0.030232701 0.07368763 -0.41769704 -0.4888708
000380 65 5f d8 bd f4 f5 1b ba 53 90 23 3e 32 f3 c0 3e
       -0.1056507 -0.00059494306 0.15973024 0.37685543
000390 90 5a 0d 3e eb 84 f3 3d 10 f7 ef bd 1a 04 25 3e
       0.13804078 0.118905865 -0.11717045 0.16114846
0003a0 27 61 cf 3d 5e 9a 8a be 38 c5 a6 bd 2f f1 34 3e
       0.10125952 -0.27070898 -0.08143085 0.17670129
0003b0 f2 b9 4e 3e 76 c1 fb 3d 52 66 35 be da bf 2b be
       0.2018812 0.12292759 -0.17714813 -0.16772404
0003c0 fc 22 f9 3d 52 03 4b 3e e1 b1 28 3e e7 a2 68 3e
       0.12164876 0.19825485 0.16474105 0.22718392
0003d0 c8 ca 05 3e 35 e6 00 3e af d6 4a bd b8 16 10 bd
       0.13065636 0.12587817 -0.049521144 -0.035177916
0003e0 c6 ce 73 3b 2f c5 1f 3e 86 4b a3 3e e1 1a 42 3e
       0.0037202104 0.15602563 0.31893557 0.18955566
0003f0 7f e6 47 bc c8 15 5b be 66 1f ab be a4 90 9b be
       -0.012200951 -0.21395028 -0.33422393 -0.3038379

layer2.0.bias f4 [16]
000000 1a d2 8d be e2 7b 8b be 5a b7 9e 3c bf 32 8a bd
       -0.27699357 -0.27242953 0.019374538 -0.0674796
000010 c8 f8 0f bf 56 c5 29 be 4d 3d 8d be 22 24 2c 3f
       -0.56238985 -0.16579184 -0.2758583 0.67242634
000020 3f 9f d6 3e af fc 5d 3f f0 d3 b9 3e c7 10 0c 3f
       0.4191837 0.8671369 0.36294508 0.547131
000030 8e 44 f3 bd de c2 ec 3d 7c 04 74 3e a9 4c 95 be
       -0.1187831 0.115606055 0.23829836 -0.2916005

fc4.weight f4 [120, 256]
000000 33 36 a5 3d ca fa 17 bd 52 38 3e 3e 34 16 03 be
       0.08066978 -0.037104405 0.18576172 -0.12801439
000010 3c d7 bc bd ad 21 f1 bd bd 35 01 3e a0 87 ff bc
       -0.0922074 -0.11774001 0.12618156 -0.0311926
000020 b8 25 6b be fe 50 93 bb 0a ae e7 bd 46 f9 66 be
       -0.22963607 -0.004495739 -0.11312492 -0.22556028
000030 28 08 55 3d 5b 05 09 3f 5d ba 8c 3d 0f 07 00 bd
       0.05200973 0.53523797 0.068714835 -0.03125673
000040 28 98 1a 3e 74 75 a7 be 52 f9 e6 bd 40 04 92 3c
       0.15097106 -0.32706797 -0.11278023 0.017824292
000050 b9 fd 04 be db a8 56 be 72 dd e6 bc de ef 83 be
       -0.12987413 -0.20962851 -0.028181765 -0.25768942
000060 dd 80 bf 3d 2d 9f 9e 3e 80 ff 14 3e c7 2c fd bd
       0.093507506 0.30980816 0.1455059 -0.12362056
000070 6b 03 c9 3d 7c e0 9d 3e 1e f9 ae be bc 09 84 3e
       0.09815105 0.3083533 -0.34174436 0.25788677
000080 de e8 0d 3e 9c 27 fd 3e 37 f6 6d bd dd e9 2d be
       0.13858363 0.49444282 -0.058096137 -0.16983743
000090 a0 03 88 3e d4 88 48 be 7f cb 9f 3c 1e a5 94 3e
       0.26565266 -0.19583446 0.019506214 0.29032224
0000a0 90 c2 9d be 48 a6 9f be 9b f1 c9 bd 7a 05 08 3d
       -0.30812502 -0.3118155 -0.09860536 0.033208348
0000b0 de 0e 84 3c 8e 72 bf bd 23 af 70 bd 90 99 96 be
       0.01612037 -0.093480214 -0.058760773 -0.29414034
0000c0 c3 fc 21 be df d3 f0 3d 70 34 67 3e 84 36 29 3d
       -0.15819077 0.11759161 0.22578597 0.041311756
0000d0 75 cf e7 3d ba a5 18 be a4 86 b6 3d 8e 4a b5 3d
       0.11318866 -0.1490697 0.089123994 0.08852111
0000e0 26 8a 6b 3e 05 69 83 3e ca 0c cf 39 56 34 73 be
       0.23001918 0.2566606 0.00039491645 -0.23750433
0000f0 64 a6 fe ba 33 96 7b be 67 0a 63 be 06 fc b3 bd
       -0.001942825 -0.24569015 -0.22171937 -0.08788304
000100 80 ed 9c 3e 64 f2 5e 3e 72 b7 cf 3d 53 d2 cc bb
       0.30649948 0.21772152 0.10142411 -0.0062506585
000110 5f c3 ba bc 02 43 9a 3d db 41 b0 3e f7 b7 37 be
       -0.022798238 0.07532312 0.34425244 -0.17941271
000120 93 90 66 be 1e c8 88 3e 5c f3 14 3e cb a9 d2 3d
       -0.22516088 0.26715177 0.14545959 0.10286292
000130 33 c0 92 bb e4 82 71 3e 8a 73 c4 bc fa 9e 67 be
       -0.0044784783 0.23585087 -0.023980875 -0.22619238
000140 be 3f 86 3e 11 c0 1f bd f9 17 a9 be dd 3d 0d bd
       0.26220506 -0.03900153 -0.33026102 -0.034482826
000150 25 fa e0 bd 7e ff 61 3e 57 32 59 bd 82 83 8a be
       -0.10985211 0.22070119 -0.053026523 -0.27053457
000160 40 50 61 be f4 70 6a 3e 42 e5 b0 bc 64 ad e6 bd
       -0.22003269 0.2289465 -0.021593694 -0.112635404
000170 3a 8d 32 3e d1 e6 6b 3e a2 68 59 be b5 b4 9d bd
       0.17436686 0.23037268 -0.2123132 -0.07700483
000180 18 43 ad bd 73 57 b8 be 69 0e d1 3e dc 13 12 3e
       -0.08460063 -0.36004218 0.40831307 0.14265388
000190 d6 cc 03 be 59 1c 00 bf 8c a9 ae 3d a1 20 28 be
       -0.12871107 -0.50043255 0.08528432 -0.16418697
0001a0 1b aa c4 3e 76 5a 86 bd 41 f5 b9 be 51 37 2c 3b
       0.3841103 -0.06560223 -0.36319926 0.0026278088
0001b0 a3 a0 8a bd 11 52 5f 3e 1e bf 01 3e 50 fa 95 3e
       -0.0676892 0.2180865 0.12670562 0.29292536
0001c0 06 53 7e be 7c 84 b7 be 86 2f c6 bd 02 5b 45 bb
       -0.24836358 -0.35843265 -0.09677033 -0.003011406
0001d0 6c bc 68 3e 12 7a 02 3e 2b 1e 91 3d ad 62 02 be
       0.22728127 0.12741879 0.07085832 -0.12732954
0001e0 98 6f 1a bd 12 b4 0b 3d 9d b9 a0 3e 13 8b c0 3d
       -0.03770408 0.034107275 0.31391612 0.09401526
0001f0 12 5f af 3d 0e a3 db bd e2 a8 b8 3e d1 71 ce 3e
       0.08563055 -0.107244596 0.36066347 0.4032121
000200 7c 39 c9 3e f1 4e 34 be ac 60 21 be af 24 13 be
       0.3930167 -0.17608239 -0.15759534 -0.14369462
000210 aa 6a e6 bd d6 25 34 be 3e 2b 4f be b4 38 d7 bd
       -0.11250813 -0.17592558 -0.2023134 -0.10508862
000220 7b cf 1d be 53 42 16 3e 1d 84 f0 3d f0 2a 97 bd
       -0.15411179 0.14673738 0.117439486 -0.073812366
000230 64 0c 2e bd 12 b8 80 3e 7c 5d 7d be 6d 54 9b be
       -0.042492285 0.25140435 -0.24742693 -0.3033785
000240 d3 00 14 be bc d2 05 be df 39 24 3f 76 b2 15 3e
       -0.1445344 -0.1306867 0.64150804 0.14618859
000250 ad 85 25 3e 06 2f ba 3d c7 d7 35 be e0 a9 00 3d
       0.16164275 0.09091 -0.17758094 0.031412005
000260 fa d5 90 3d 9f 19 67 be 3a cd 45 be fc 64 c1 bd
       0.07072063 -0.22568367 -0.19316569 -0.09443089
000270 62 3e 87 3d 01 43 10 bd 57 8e 39 be b3 93 0b be
       0.066036955 -0.03522015 -0.18120705 -0.13630562
000280 3c 32 b8 3d c4 38 fd bc c3 74 cd 3b 92 5f 1f 3c
       0.089939564 -0.030910857 0.0062700226 0.009727376
000290 c6 3b 74 3d f9 72 e1 3d 8f a0 5f bd b6 ad 54 be
       0.059627317 0.110082574 -0.05459648 -0.2076939
0002a0 d8 58 a0 be fa 81 15 be 59 af c8 3d 90 2a 5b 3d
       -0.31317782 -0.14600363 0.0979907 0.053507388
0002b0 32 9d 95 bc 92 44 f2 bc 3a 34 05 be da c0 ef 3d
       -0.018263433 -0.029573712 -0.13008204 0.117067054
0002c0 ec 99 d5 3d 6a ff 88 3e 11 fd a7 3e 0a 48 86 3e
       0.10429749 0.26757365 0.32810262 0.26226836
0002d0 b2 09 d3 bd d7 fc b2 bd 24 22 09 3f 77 99 24 3c
       -0.103045836 -0.087396316 0.5356772 0.0100463545
0002e0 64 c0 46 bd 47 9a f2 bd 6f 88 0a 3d 23 e3 27 be
       -0.04852332 -0.11845832 0.03382152 -0.1639524
0002f0 77 74 ae 3d 2f 55 d6 bc d9 7b 8a 3e 20 72 13 be
       0.08518308 -0.026163666 0.27047613 -0.14399004
000300 c6 86 16 3d 42 96 4c be 6c 0f 3f 3b cd 54 41 3e
       0.036749624 -0.19979194 0.002915348 0.18880005
000310 8b 30 4c 3d 87 89 a4 3e be 5e 65 bd b4 3c 22 be
       0.04985098 0.32136175 -0.055998556 -0.15843469
000320 cd e3 2a be e9 29 e3 bd 1c 1c 91 3d 22 8a 17 3e
       -0.16688462 -0.11091978 0.070854396 0.14798787
000330 a9 ec 25 3e d5 bc 92 3d f4 61 be be 6a cd ce bd
       0.1620356 0.07164923 -0.37184107 -0.100977734
000340 bd 3b 40 be 37 16 3a 3e 20 9e 06 be 2e 25 1a be
       -0.18772788 0.18172537 -0.13146257 -0.15053245
000350 72 c9 56 3e a1 39 58 3e 35 f9 8d bd 59 c5 62 3e
       0.20975283 0.21115734 -0.06932298 0.22145595
000360 cb 12 af 3d de fd 9a be c4 0f cb 3d 3c 8e 34 3e
       0.08548506 -0.3027181 0.099151164 0.17632383
000370 59 5f 84 be c2 77 20 3e ad 13 99 3e bf b6 5c 3c
       -0.25853994 0.15670684 0.29897824 0.013471304
000380 ff 5e 15 3e c9 9b 20 3e 85 c4 c4 3e f6 f1 6c be
       0.1458702 0.15684427 0.38431183 -0.23139176
000390 86 9a cb 3d 97 b2 30 be 41 0f f8 bc c1 5f 72 be
       0.099415824 -0.17255627 -0.030280711 -0.2366934
0003a0 36 b5 46 bd b3 a6 dd 3d 78 f8 18 3d 70 6b c3 bd
       -0.04851266 0.10822811 0.037346333 -0.095419765
0003b0 d0 99 6f bd 50 50 5f 3e e5 20 c9 be 61 57 1b be
       -0.058496296 0.2180798 -0.3928291 -0.15170051
0003c0 9e b7 c5 bd 78 f3 76 be c4 aa b0 3e 77 57 63 3e
       -0.09654163 -0.24116313 0.34505284 0.22201334
0003d0 6f fa 32 be 91 d8 ab be 55 3e cd 3b 4a 49 6d 3d
       -0.17478345 -0.33563665 0.006263534 0.057931222
0003e0 21 b4 83 bb ab d6 b1 3b 57 d7 7b bb 9e 4c fd bd
       -0.004019276 0.0054272017 -0.0038427913 -0.12368129
0003f0 0e 20 81 3e 49 b5 58 3e 84 30 15 3e 45 e1 c7 bd
       0.25219768 0.21162905 0.14569288 -0.09759764

fc4.bias f4 [120]
000000 87 ea 28 3e fc 1f 21 be 67 2d 82 3e 1e aa c5 3d
       0.16495715 -0.15734857 0.25425264 0.09651588
000010 ea a8 bf bc 9a fa b9 bc 88 54 8e 3e ec 67 35 bd
       -0.023395974 -0.022702504 0.27798867 -0.04428856
000020 8c 11 12 be ad cb ab 3c f5 11 2b 3e 91 9c c0 be
       -0.14264506 0.020971144 0.16706069 -0.3761945
000030 12 2e 9a 3e a4 d8 77 3e ff e2 23 3e 51 b7 22 be
       0.30113274 0.24203736 0.16004561 -0.15890242
000040 98 4c da 3c 50 c8 14 be 56 de 53 3e 6c d3 53 3d
       0.02664785 -0.14529538 0.20690283 0.0517153
000050 35 51 9d be b8 0f ea 3c af d4 a0 bd 7f 72 eb 3b
       -0.3072602 0.028571948 -0.07853066 0.00718528
000060 8c 78 94 be 80 d6 38 be 21 4f c0 3e 30 2f 7f 3e
       -0.2899822 -0.18050575 0.3756037 0.24920344
000070 42 dd eb bd 7a 1c 01 be 5c ae 6a bd bb bb 9a be
       -0.11516811 -0.12608519 -0.05729519 -0.30221352
000080 79 c9 bc be 9f 83 f3 3d aa 61 4e be 6d 3c ef 3d
       -0.3687246 0.11890339 -0.20154443 0.11681447
000090 46 46 40 3c b6 c9 3c 3e 35 75 c6 3c fc ba 28 be
       0.0117355045 0.18436322 0.02422581 -0.16477579
0000a0 2b 63 28 3e fc e2 76 3e ac 29 04 3e ab 6a 42 3d
       0.1644408 0.24110025 0.12906522 0.047465008
0000b0 c9 cc 5e 3e fc 16 ed bd db 4c 19 be 31 9f 7b 3d
       0.21757807 -0.115766495 -0.14970724 0.061431114
0000c0 32 92 45 ba 2d 19 94 bd 66 a6 3d 3e 5c 23 2e 3e
       -0.00075367384 -0.072313644 0.18520507 0.17005676
0000d0 d6 b0 8d 3d 1d b5 1e 3e 25 8a 11 3e 4a 6f a5 3d
       0.069184944 0.15498777 0.14212854 0.08077867
0000e0 a5 17 3f 3d 41 a8 7d bd d1 68 c1 bd 7f e8 27 3e
       0.04665341 -0.061928038 -0.0944382 0.16397284
0000f0 b8 41 36 be 5c c2 81 3d 31 54 be 3d a8 85 12 3d
       -0.17798507 0.06335899 0.09293402 0.035771996
000100 af 13 67 3d be 10 12 bb 4b d7 ba 3e b9 1a 8b be
       0.056415256 -0.002228781 0.3649238 -0.27168825
000110 52 cc fe 3d 61 ad 29 3d 7b 54 2a bd d9 06 16 3e
       0.12441315 0.041425113 -0.041584473 0.1465105
000120 4a 30 c0 be 41 23 c5 3d 93 8a 12 be f5 49 09 3e
       -0.37536842 0.09625865 -0.14310674 0.13407119
000130 a9 f2 18 bd 76 fe c6 be 96 90 f3 bd cb 87 42 be
       -0.037340794 -0.38866013 -0.11892812 -0.18997113
000140 94 2b 59 3e e9 46 99 3d 56 f6 a2 3d 6b cb f9 3d
       0.2120803 0.07484228 0.07957141 0.12197002
000150 ac 05 93 be c1 9c c0 bd 50 15 12 be 46 65 20 3e
       -0.28715265 -0.094048984 -0.14265943 0.15663633
000160 1c fd ac bd 1b 93 a2 bd 4f 20 e5 bd 28 77 0c 3d
       -0.08446714 -0.079382144 -0.11187803 0.034293324
000170 b8 28 32 be 47 b9 c8 bc b4 2e d2 3d ce 1c 5f 3e
       -0.17398345 -0.02450241 0.10262814 0.21788332
000180 d0 e7 a0 bd 67 30 8e 3e e2 53 b1 bd 8a 8c 59 be
       -0.07856715 0.27771303 -0.086585775 -0.21245018
000190 5d 4a 8a 3c a9 59 61 be 0a cb 3a be 5a b1 ee bd
       0.016881162 -0.22006859 -0.18241516 -0.11654921
0001a0 c9 a6 27 3e f2 13 aa 3c 51 4a b2 bc 01 47 a4 bd
       0.16372217 0.020761464 -0.021763952 -0.080213554
0001b0 e4 cc ac 3c af fb 3a 3e 94 95 45 be 4c e1 93 bd
       0.021093793 0.18260072 -0.19295341 -0.07220706
0001c0 43 81 61 3e 5c ed 0f 3e 99 9f d2 bb 8f 62 3a bc
       0.22021966 0.14055389 -0.006427717 -0.011376037
0001d0 24 39 3a bc 86 c8 0a be be 45 00 be 76 65 c8 bd
       -0.011366162 -0.13553056 -0.12526605 -0.09784977

fc5.weight f4 [84, 120]
000000 f6 04 bd bd a8 63 60 3d 60 fd 07 be 08 e9 07 3d
       -0.09229462 0.05478254 -0.13280249 0.03318122
000010 ee 43 93 3d db 69 98 bc fb fb fd bc c0 52 29 be
       0.07190691 -0.018605163 -0.031003943 -0.16535473
000020 a5 e1 cd ba 06 18 56 3d eb 75 82 3d 93 24 d5 bb
       -0.0015707506 0.052269004 0.06370147 -0.006504604
000030 3a 3c 7c bd a0 45 d8 bd 7c c3 3b 3a a6 01 32 3d
       -0.061580874 -0.10560155 0.00071626133 0.043458603
000040 0c 06 eb bd 56 6b c4 bd 7b 7a b3 bd 78 83 66 3c
       -0.11475763 -0.09590785 -0.08763596 0.0140694305
000050 c7 4d 0e be 9d ff ba 3b e5 29 67 bd bd 06 32 3d
       -0.13896857 0.005706741 -0.056436438 0.043463457
000060 44 45 c4 3d c2 42 86 3d 8e fb c4 3d 22 ec 89 3d
       0.09583524 0.06555702 0.09618293 0.06734492
000070 0d 30 b4 3d 8b d9 f2 3c 70 03 52 be 2f 4d 6f bc
       0.087982275 0.029644748 -0.20509124 -0.014605804
000080 77 df 28 be 27 97 00 3e 0c d1 d0 bd 91 47 74 3d
       -0.16491495 0.1255766 -0.101961225 0.059638564
000090 25 a7 b2 3d d3 ad 24 bd 71 a4 90 bd 23 32 bb bd
       0.087232865 -0.040204834 -0.07062615 -0.09140422
0000a0 63 13 69 3d eb 34 d5 3d 71 f3 88 3d ec 19 57 bd
       0.056903254 0.10410484 0.06687058 -0.052514955
0000b0 2f ee 63 bd e6 96 6e 3d 10 42 d2 3d be bb 80 bc
       -0.05564707 0.058249377 0.10266507 -0.015714522
0000c0 b3 a2 2a 3d 99 ee c5 bc 63 2e e2 bd b2 64 45 be
       0.04165907 -0.024161624 -0.11044004 -0.19276693
0000d0 bd 46 b3 3d 9b 06 f1 3d 55 79 6f 3d 4f d8 86 bb
       0.08753727 0.11768838 0.05846532 -0.0041151415
0000e0 cb 95 83 3d f1 5f b1 bb 9e 38 99 3c a5 5b 3d 3d
       0.06425055 -0.0054130484 0.018703755 0.046229977
0000f0 97 b2 bc bd 71 3b 6d 3c 8a 59 65 bb 69 e1 81 bd
       -0.09213751 0.014479504 -0.0034995996 -0.06341822
000100 52 e8 f4 3d 4d 7f 91 3d ce a2 48 bd a5 06 9b 3d
       0.11958374 0.07104359 -0.048983388 0.07569627
000110 54 d4 82 bd 31 27 1d be 61 ba d7 bd 1b ef c2 bd
       -0.063881546 -0.15346982 -0.10533596 -0.09518262
000120 dd c6 bd 3d c7 93 27 3d ef 8e 11 3e 0a c1 76 bd
       0.09266446 0.040912416 0.14214681 -0.06024269
000130 5b 15 9f 3d 55 22 7f bc 23 61 d7 3c 49 2e ac bc
       0.07767745 -0.01557215 0.026291436 -0.021018164
000140 0b bc 80 bd 0e b5 20 3e 81 0c 78 3d 57 58 18 3b
       -0.06285866 0.15694067 0.0605588 0.0023246014
000150 6b 1c b4 bc 9d 99 56 3c c4 b0 84 3c cf f1 a2 bd
       -0.021986207 0.013098148 0.01619757 -0.079562776
000160 7c 8b ce bc 24 87 02 be 11 a1 bc bc de d4 3a bb
       -0.025212996 -0.12746865 -0.023026021 -0.0028508226
000170 d5 6e 14 3d 85 74 c6 bc 28 4a ba 3d be 93 fa bc
       0.03623851 -0.024225483 0.090961754 -0.030588027
000180 f8 7b af 3d c3 46 e9 3d 89 18 7d 3d 48 ad f4 bd
       0.08568567 0.1139045 0.061790977 -0.11947113
000190 1b d6 9e 3d 82 50 ac bd 49 7a 3d bb 6c 94 00 be
       0.07755681 -0.08413793 -0.0028912 -0.12556618
0001a0 fb 8b b9 bc 78 ce 3e 3d 1f 4a b3 bd ad bb 81 3c
       -0.022649756 0.046583623 -0.08754372 0.015836561
0001b0 2f f7 a8 bd 49 18 5b 3d ac cb 21 3e e1 32 88 bd
       -0.082502715 0.053489957 0.15800351 -0.066503294
0001c0 2e 04 f8 bd 7d da f5 bd 93 ed 20 ba 33 12 9f bc
       -0.12110172 -0.12004564 -0.0006138917 -0.019417858
0001d0 73 3c 92 3d 00 c9 10 3e 37 17 cd b7 78 21 89 bd
       0.07140436 0.14139175 -2.4448715e-05 -0.06695837
0001e0 3e 58 32 3d 7a 6c c5 3d 26 f2 7f bd 99 0f 34 3e
       0.043541186 0.09639831 -0.06248679 0.17584075
0001f0 d1 14 b3 bd 93 35 08 be 46 ca 6a bd a8 ac b2 3c
       -0.08744205 -0.13301687 -0.05732181 0.021810845
000200 26 52 93 3d dd 35 c3 bd 1a 6e 92 3d 3a 7c 15 bd
       0.07193403 -0.09531758 0.071499065 -0.036495425
000210 64 06 51 3e 61 79 6c be 57 04 9a bc c6 50 48 3d
       0.20412594 -0.23093177 -0.018800898 0.048905157
000220 09 f1 28 be 01 d4 04 3d 6e a8 11 3d bc 6e 72 bd
       -0.16498198 0.032428745 0.035561018 -0.059187636
000230 41 70 59 be 51 ce 04 3e 07 ce 86 bd cd ef ad 3d
       -0.21234228 0.12969328 -0.06582265 0.08493004
000240 7e bd e7 3c a9 03 d7 bd 7a 64 b1 3c 00 22 59 3d
       0.0282886 -0.10498745 0.021654356 0.05301094
000250 27 d1 c8 3d bc 9e 97 bd 77 7d cd 3d 3e 7a 45 3d
       0.09805518 -0.07403323 0.10033696 0.048212282
000260 39 67 b1 3c 3c 94 20 be 54 ac 1b 3e 15 aa 43 bd
       0.021655666 -0.15681547 0.15202457 -0.047769625
000270 41 09 2b 3e 12 43 6a 3d ba fb 77 bd cb a9 78 3d
       0.16702749 0.05719287 -0.0605428 0.060708802
000280 e6 a8 01 3d d0 cb 1f 3e 49 50 17 3e 7a 66 fa 3c
       0.031655215 0.15605092 0.1477672 0.030566443
000290 08 76 0a be af a6 02 3e 66 8a 15 3e 2f 45 d3 bd
       -0.13521588 0.12758897 0.14603576 -0.1031593
0002a0 2d d3 d9 3d 1a 11 2b 3e 51 c6 54 3e ab a5 73 bd
       0.10635982 0.16705742 0.20778777 -0.059484165
0002b0 be ab 1c 3e 68 34 35 bd cb b3 d9 3c 72 2e ab bd
       0.1529989 -0.04423943 0.02657499 -0.08358468
0002c0 da b5 5f bd d7 d9 3a 3d 49 c3 bc 3d 13 71 2a bd
       -0.054616787 0.045617905 0.09216935 -0.041611742
0002d0 38 b0 42 bd eb 1b c7 bd ed f3 6a be 1a a1 48 be
       -0.047531337 -0.09722122 -0.22944613 -0.19592705
0002e0 4e 09 e9 3d fb 64 81 3d 69 0a 44 3e 88 31 93 be
       0.11378728 0.063180886 0.19144596 -0.28748727
0002f0 5d 14 e7 3c da 63 92 3d 2b 7f 53 bc c1 8a 71 3d
       0.028207952 0.071479514 -0.012908737 0.058970217
000300 38 68 5a 3e 72 72 3d 3d db 08 07 bd 7f ba 00 bc
       0.21328819 0.04625172 -0.03296743 -0.007856964
000310 a6 a2 d4 3d 23 14 b3 3d 40 30 0b 3e 7c 0c 32 bd
       0.10382585 0.08744075 0.13592625 -0.043468937
000320 7a 35 50 3c e1 86 6b 3d 08 a2 95 bd 1d fd 9e bd
       0.012708062 0.057501677 -0.07306296 -0.07763121
000330 0a ba fb 3d 24 34 65 3c f0 d9 f9 3d 68 d1 f1 bd
       0.122913435 0.013989482 0.121997714 -0.11807519
000340 f0 19 2d bd a8 b0 84 bc 61 0d 31 3d 32 51 23 be
       -0.042261064 -0.016197518 0.04322565 -0.15948942
000350 59 7b a5 3d 6f e4 9b bd f5 a6 2f 3e c6 09 d5 bd
       0.08080167 -0.076119296 0.17153533 -0.10402255
000360 2e 0e e9 bd 23 76 de 3d 5b 53 01 bb 1e 18 e2 3d
       -0.11379658 0.108623765 -0.0019733522 0.11039756
000370 c2 4a 67 bd aa 92 2d 3e b0 6b 8f bd 85 75 9a be
       -0.05646778 0.16950479 -0.07002962 -0.30167785
000380 9c ea 81 3d fd 74 09 bd a4 93 13 bd a9 69 9f 3d
       0.06343576 -0.033558834 -0.036029473 0.07783825
000390 5e 2b f1 bd e5 2f 30 3e 5f 7b ba 3d d4 cb 12 be
       -0.1177585 0.1720577 0.091055624 -0.14335567
0003a0 77 05 f3 3a ff 8d 31 be eb be 40 3e 8e d4 fa bd
       0.0018541057 -0.17339323 0.1882283 -0.12247573
0003b0 7b ba 13 be d9 11 53 be e2 a1 1f be c4 67 07 3d
       -0.14426605 -0.20612277 -0.15589097 0.033057943
0003c0 c2 a7 cb 3c bd ec a0 bc 5c 6c a3 bc ad c7 53 3d
       0.024860267 -0.019644136 -0.01994913 0.051704098
0003d0 03 40 f9 ba 94 31 15 bd 6e d8 e6 bb ce 95 0d 3e
       -0.0019016269 -0.036424235 -0.0070448434 0.13826677
0003e0 f1 16 13 3d 98 b8 17 3c 66 a8 84 3d 7a 0c 97 3c
       0.03591055 0.009260319 0.06477432 0.018438566
0003f0 74 f5 a3 bd 93 15 05 3e 0e 26 79 ba b2 8c 65 bc
       -0.08005801 0.12996511 -0.0009504267 -0.014010595

fc5.bias f4 [84]
000000 44 93 62 3d ef fc e8 3d b9 fd 8a 3c 94 55 3e 3c
       0.055316225 0.11376368 0.016966688 0.011617083
000010 73 af b4 3d 2f 50 51 bb fc 10 05 3e 49 c9 a0 bd
       0.08822527 -0.0031938662 0.1299476 -0.07850892
000020 44 e6 67 bd 63 e0 89 be 57 a2 4b 3d bf df 08 3d
       -0.056616083 -0.26929006 0.049715366 0.033416506
000030 ad 56 08 3c b2 39 68 bc a6 56 3f be 1b 1a 3b 3b
       0.008321446 -0.014173912 -0.18685398 0.0028549496
000040 92 bf ee 3d 6c ea a3 bd 1e 76 2d bc 83 f3 be 3d
       0.11657633 -0.08003697 -0.010587243 0.0932379
000050 96 5b 92 3c 50 f0 93 be f6 99 50 3d c6 8a 38 be
       0.017865937 -0.2889428 0.05092808 -0.18021688
000060 7c 49 60 3e 19 69 2f bc 77 6a 1d be 0c bc 8b 3b
       0.21903032 -0.01070621 -0.15372644 0.0042643603
000070 9a 0b f8 3d fb f1 68 bc 65 b2 a6 3e d2 c4 9a be
       0.12111588 -0.014217849 0.3255798 -0.30228287
000080 f0 9c 9c 3e ec 80 2e 3d f1 61 a4 bc 1f c5 66 be
       0.30588484 0.04260342 -0.020066233 -0.22536133
000090 da 87 ee bc 4d 44 59 3d 26 a2 69 bd 54 58 3a bd
       -0.029117513 0.053043652 -0.057039402 -0.045494393
0000a0 ba 04 f4 be e4 9b e9 bd 3d 6c ad bb 1e 4a d1 3c
       -0.47659856 -0.11406687 -0.005292444 0.025548037
0000b0 6d 64 2e 3e 8e 6a ae be c4 7c 87 3d 18 43 8c bd
       0.17030497 -0.3406567 0.06615594 -0.068487346
0000c0 bd d8 4a 3c 9c c4 b7 bc 28 fe 82 3e 58 e0 a1 3d
       0.012380776 -0.022432618 0.2558453 0.07904118
0000d0 74 3d 50 3c 4d 67 34 be 9e 03 56 bb 78 4b e5 3c
       0.012709964 -0.17617531 -0.0032655965 0.027990088
0000e0 7a 02 b6 bc 0c 98 cb be 44 f5 01 bb c5 a8 da bb
       -0.022217978 -0.3976444 -0.0019830028 -0.006672951
0000f0 41 c6 e9 bc 5c 13 36 bc 61 46 53 3d 4a 8e 45 bd
       -0.028536918 -0.011113014 0.05158079 -0.0482314
000100 c2 11 e5 bc 60 b9 94 be ef 76 ac 3c 8a e9 21 3d
       -0.02796257 -0.2904768 0.021052806 0.03952936
000110 66 a9 22 3e 6a 7d 10 be 82 6b 11 3c ff 52 5c be
       0.15884933 -0.14110342 0.0088757295 -0.21516035
000120 a9 19 8f be f5 ae 42 be 1c 76 95 bc 66 49 49 bd
       -0.27949265 -0.19012053 -0.018244796 -0.049142264
000130 6a 35 15 3e 4a 89 db be 4c a6 7e 3c 41 95 64 3b
       0.14571157 -0.4287818 0.015542578 0.0034879001
000140 d6 63 bd 3e 25 3c 9d 3e 3a c0 a0 bd 8f 49 ec 3c
       0.3699023 0.3070995 -0.07849164 0.02884367

fc6.weight f4 [10, 84]
000000 b2 99 8f be df 16 9f 3f 67 ae de be 00 f5 83 3f
       -0.28046948 1.2428855 -0.43492433 1.0309143
000010 4e 16 82 3f 07 eb 46 3f fd 01 43 bf 59 61 4c be
       1.0163057 0.77702373 -0.7617491 -0.1995901
000020 36 bd f8 3e ac c0 8c bf 29 36 11 bd b6 34 1b 3f
       0.48581856 -1.0996299 -0.03545204 0.60627306
000030 c6 b1 3e 3f dc 10 93 3f 59 7a 28 3d fc 9a 25 40
       0.7449001 1.148952 0.041132305 2.5875845
000040 41 18 10 bd 21 eb 06 3f dc a8 a3 3e fc 39 c0 3e
       -0.03517938 0.5270253 0.31964767 0.3754424
000050 30 35 9d 3f 71 83 25 bf 2a 6b 6c 3e a0 9e 71 bf
       1.2281857 -0.6465369 0.23087755 -0.9438267
000060 ff 30 3f bf 1b 55 be bf 01 b6 3a bf 0f 66 db 3f
       -0.7468414 -1.4869722 -0.72933966 1.7140521
000070 2e 5c 2e 3f c0 a2 38 3f e1 3c 36 bf 25 02 04 bf
       0.68109405 0.72123337 -0.71186644 -0.5156577
000080 42 5e eb be d3 9a 13 3f 39 13 95 3f da 47 e2 bd
       -0.4597035 0.5765812 1.1646491 -0.11048861
000090 2e 1a 54 3f e8 2e 6c 3f e5 1d d2 be 74 a8 58 bf
       0.8285245 0.92259073 -0.41038433 -0.8463204
0000a0 28 54 08 3f 49 b4 0a 3f 85 fa f9 3f 64 bc 2a bf
       0.5325341 0.54181343 1.9529577 -0.6669371
0000b0 3e a7 98 3e f1 c4 ab 3f 4b d5 54 bf 42 16 ad 3f
       0.29815096 1.3419477 -0.8313796 1.3522418
0000c0 2f 5f 93 3d 40 43 61 be dc 22 56 be 94 f2 4e 3f
       0.07195889 -0.2199831 -0.20911735 0.80838895
0000d0 97 b7 b5 bf cf b3 12 40 91 61 d1 bf d8 5a a2 bf
       -1.4196652 2.2922246 -1.63579 -1.2683973
0000e0 61 00 d3 3f d6 f2 a9 be cb 20 9a 3f b1 7f b9 bf
       1.6484491 -0.33193082 1.2041258 -1.4492093
0000f0 e4 e4 c2 bf 1c 5b f4 3f 02 ea 0c be be 36 dd bf
       -1.5226102 1.9090304 -0.13761142 -1.7282331
000100 2e 05 7b bf 9e 75 d3 3e e1 b9 b6 3e ce 5d 1b c0
       -0.9805478 0.41300672 0.3568869 -2.4276004
000110 46 e1 74 be 49 35 e5 3e 4d c9 0b bf 15 b8 07 bf
       -0.2391406 0.44767216 -0.54604036 -0.5301526
000120 c1 36 1b 3f 60 7c b2 bf 30 ad ba bd fa 52 b2 be
       0.6063042 -1.3944206 -0.09115064 -0.3482893
000130 ce 37 c4 bf b3 ac 7d 3f 2d b7 25 bf 99 b3 99 be
       -1.532953 0.99091643 -0.6473263 -0.30019835
000140 df ce f7 3e 80 73 34 bf f3 35 4a 3f 9e f4 08 bf
       0.48400018 -0.7048874 0.7898857 -0.53498256
000150 34 58 4c bd 3a f1 38 bd cc da f9 3b fd 8b 95 bb
       -0.049888805 -0.045151927 0.0076249596 -0.004563807
000160 84 83 5e 3d 90 ea e1 bc ce bc 85 3d bd 95 68 3e
       0.05432464 -0.027577668 0.06530152 0.2271337
000170 d2 b0 be 3c c1 80 a3 bd e8 5f bf 3d 13 57 ee 3d
       0.023277674 -0.07983542 0.093444645 0.11637702
000180 9b 55 49 bd 41 13 13 3c f6 38 4c be 07 69 c1 bc
       -0.049153905 0.008976758 -0.19943604 -0.023609651
000190 5d 24 41 be 13 c4 7b 3d a6 e3 64 3d 05 e6 e7 bd
       -0.18861528 0.061466288 0.055881165 -0.113231696
0001a0 9d c4 d0 3a b5 cc 3a 3d 88 d8 3a 3d 49 54 46 bc
       0.0015927736 0.04560538 0.045616657 -0.012105056
0001b0 a4 f6 e8 3b 6c 74 65 3d 45 cd 5c 3d db 4c 9d 3d
       0.00710948 0.05601923 0.053906698 0.07680675
0001c0 6b 75 3a 3d ec ee 74 bd 97 b0 3b 3e 26 61 03 3e
       0.045522135 -0.059798166 0.18329082 0.12830028
0001d0 0f d0 99 3d 56 d6 4f bd a7 ca fe bb a8 73 f7 bd
       0.07510387 -0.050741516 -0.007775623 -0.120826066
0001e0 f0 62 0a 3d ee 82 42 bd 36 fe b0 bd 16 ed a5 3d
       0.03378576 -0.047488146 -0.08642237 0.08101861
0001f0 23 04 aa bd 96 63 3b bd 47 38 04 bd c6 23 60 3d
       -0.0830157 -0.04574927 -0.032280233 0.054721616
000200 92 28 c4 3d 88 71 a3 bc 78 c0 34 3d 4c a3 07 bd
       0.09578051 -0.019951597 0.044128865 -0.033114716
000210 50 7c d4 bc 42 43 00 3c 8b 17 d6 3d fe 51 ca bd
       -0.025938183 0.0078285355 0.10453709 -0.0987892
000220 25 bf 42 3d be 15 ff 3c 7b ea b6 bd 74 75 7e bd
       0.04754557 0.031138297 -0.08931442 -0.06212373
000230 1d a8 63 3e 42 db 68 bd 01 70 aa 3d 5d 7b a1 bd
       0.22232099 -0.056849726 0.08322144 -0.07884858
000240 cf 83 b4 bc 6d 40 4d 3c fb 88 fa 3d 8e ab f0 3d
       -0.022035507 0.012527567 0.12233158 0.117514715
000250 4a 17 06 3d 68 c7 87 3d fe 51 be 3d 2a 75 25 3d
       0.032737054 0.066298306 0.092929825 0.04039494
000260 0b 24 ab bb 45 2c 91 bd 74 76 85 3d d1 bf f9 3c
       -0.0052228025 -0.07088522 0.06516734 0.030486973
000270 c6 8a 06 bd 3b 00 d0 3c 18 ad b3 3d b9 1e 04 bd
       -0.03284719 0.025390735 0.087732494 -0.032255862
000280 d8 c5 1b b9 d2 be 23 3d 88 fc a5 bd e6 df 2f bb
       -0.00014855654 0.039976902 -0.08104807 -0.0026836335
000290 db dc c8 3d fb 1b 3e 3e 3f 61 c0 bc 35 6f 08 3c
       0.0980775 0.18565361 -0.02348387 0.008327295
0002a0 c8 0f 22 bd 09 29 5e bd 92 ab dc 3c 1b e0 8d 3b
       -0.03956583 -0.054238353 0.02693728 0.004329694
0002b0 49 c4 75 3d 24 7a 06 bd 5f 6f 81 3c 53 0e c8 bd
       0.060001645 -0.032831326 0.015800176 -0.09768357
0002c0 3c f1 7a 3c 6d 2f b5 bd 35 70 13 3e 78 4a b3 3d
       0.015316304 -0.088469364 0.14398272 0.08754438
0002d0 64 32 1b bd 5b b7 23 3c 63 78 17 be d8 64 fa bc
       -0.037889853 0.009992446 -0.14792018 -0.030565664
0002e0 f0 98 2c 3e 42 6f 9a 3d fb 00 0a 3d 81 53 42 be
       0.16855216 0.07540752 0.03369234 -0.18977167
0002f0 93 f3 9b bd 5e 4d 94 3d 71 9b a5 3c 87 7e ba bd
       -0.076148175 0.07241319 0.020215722 -0.091061644
000300 ad a4 82 3e e1 d7 db bc e9 07 95 3d cd ba ae 3d
       0.25516263 -0.026836338 0.07276899 0.08531723
000310 9e fe b8 3c 60 a8 45 bd 75 cd 09 3e 13 02 9a bd
       0.022582348 -0.048256278 0.13457282 -0.07519927
000320 ce 86 8c bd 70 a7 4e bd 9b 2a 7e bb 16 bc fd bd
       -0.068616495 -0.05045265 -0.003878272 -0.1238939
000330 f9 3f 5e 3d 08 d5 9f bd 9a 24 a9 bd 4b bf 85 3d
       0.054260228 -0.07804304 -0.08258934 0.06530627
000340 6c 80 d9 bd 56 79 41 3c 09 9a 56 bc 0b b6 11 3d
       -0.10620198 0.011808714 -0.013098248 0.035574
000350 91 2b 4f bc 79 d2 9e 3c 60 64 f8 3c 8a c4 54 bc
       -0.012644664 0.01938747 0.0303213 -0.012986312
000360 c0 0e 31 bd 38 5d c7 bb ac 66 15 3e 2c 2f e6 bd
       -0.043226957 -0.0060841106 0.14589947 -0.11239466
000370 6f 42 52 3d 6c ac f9 3c 22 0b b2 bd 31 bd 84 bd
       0.051332887 0.030477725 -0.0869353 -0.06481398
000380 93 7b be 3d 8f fa 9f bd 4e 20 a4 3d d2 b1 b5 bd
       0.09300914 -0.07811462 0.08013974 -0.08871807
000390 f5 99 d2 bd 25 0a 64 bc 44 e1 c5 3d eb 62 2b 3e
       -0.10283271 -0.013918434 0.09662107 0.16736953
0003a0 6b 35 7d 3d 1c bf bc 3d fa 96 c4 3d ac 5f 14 3d
       0.06181852 0.09216139 0.09599109 0.036224052
0003b0 5e 81 5b 3c af f0 5e bd d9 00 2e 3d 48 50 98 3d
       0.013397543 -0.054428753 0.042481277 0.074371874
0003c0 51 b1 2f be aa b8 b6 3c be 95 b0 3d 1b cc 7d bc
       -0.17157485 0.022304852 0.08622311 -0.015490557
0003d0 17 89 59 bc a3 cc 9f 3d af 18 7a bd df 94 fb 3c
       -0.013277314 0.07802703 -0.061058696 0.030710636
0003e0 60 55 05 3d d2 fb e0 bd ba 7f 01 bc a5 74 e2 3c
       0.032552123 -0.10985531 -0.007903988 0.027643511
0003f0 e4 9a 15 bd 11 1d 0b bd f0 cd f4 3a e3 f5 6f bc
       -0.03652467 -0.033963267 0.0018677097 -0.014646026

fc6.bias f4 [10]
000000 09 a8 69 c1 2f df 29 3e 04 60 3b 3e df 43 b4 3e
       -14.603524 0.16589044 0.18298346 0.35208032
000010 df 62 89 bd 17 f9 a5 3b c3 47 2b be 63 2c d3 be
       -0.06708311 0.005065094 -0.16726594 -0.41244802
000020 f5 92 e3 3d f7 0b 8e be
       0.11112014 -0.27743503
